traffic_gcn_model.pth (torch, 870529 bytes, 14 tensors)

gcn_layers.0.weight f4 [4, 32]
0.5118859 0.6361652 0.015636176 0.73098415 -0.4456839 -0.33820555 0.092708685 0.5192157
0.49059397 -1.4192586 0.62444395 -0.19594397 -0.07837213 0.33797273 0.43919188 0.19786012
0.6473538 0.09916822 -0.3790883 -0.08256909 0.15121533 -0.7544296 0.16271493 0.09424084
-0.3445941 -0.25320768 0.25139102 -1.1519307 0.28244543 -1.0407571 0.7230731 -0.6226333
0.33185813 -0.0138659775 -0.26304755 0.22584972 -0.38490716 -0.17512216 -0.03599449 -0.019121299
-0.020829761 0.12370057 1.2835007 -0.016460575 -0.16704388 0.06767287 -0.07852829 -0.026827559
-0.13649103 -1.0384218 -1.9367642 0.049738485 0.03232063 -0.11929887 0.2013971 -0.2586122
0.12911308 0.019220568 0.22252509 0.31764182 0.010889213 -0.16219871 -0.12679769 -0.38823834
0.30975345 0.07766441 0.46191648 -0.9286685 -0.5183211 -0.56263715 0.66391885 0.36245772
0.5229563 -0.93710303 -0.49596608 -0.47004724 -0.52959776 0.44722658 0.39301 0.59743214
0.053497173 -0.22167398 0.34338957 -0.37037084 0.5769581 -0.46986514 0.56271136 -0.41804144
-0.20602241 0.055313323 0.45894092 -0.71499795 0.4883757 -0.20307718 -0.42042646 -0.6133392
0.0010176622 -0.0025233636 -0.035995275 -0.058826827 0.015002122 0.0050780135 1.3256864e-05 -0.005304107
-0.015018524 0.06891653 -0.003020291 -0.053965714 -0.1958664 0.027123556 0.019570122 -0.01634418
-0.012851195 -0.43929592 -0.06902989 -0.04977947 -0.007851274 -0.2690808 -0.0077946293 -0.124779135
-0.021956164 -0.07157372 -0.009047805 -0.04105581 -0.009526882 -0.056555606 -0.0071119755 -0.3865613
00000000: f40a 033f b9db 223f 7017 803c c721 3b3f
00000010: ae30 e4be 4729 adbe 0dde bd3d 52eb 043f
00000020: 222f fb3e 44aa b5bf 8fdb 1f3f 89a5 48be
00000030: 9181 a0bd c30a ad3e c2dd e03e d89b 4a3e
00000040: fbb8 253f b518 cb3d dd17 c2be fc19 a9bd
00000050: 31d8 1a3e 4c22 41bf be9e 263e 5701 c13d
00000060: a36e b0be 70a4 81be 53b6 803e 7772 93bf
00000070: b09c 903e 8737 85bf 521b 393f e564 1fbf
00000080: 4fe9 a93e 202e 63bc 2bae 86be 2645 673e
00000090: 8d12 c5be 3953 33be f56e 13bd 45a4 9cbc
000000a0: 2da3 aabc b956 fd3d c049 a43f 54d8 86bc
000000b0: 8d0d 2bbe 1398 8a3d 71d3 a0bd 78c5 dbbc
000000c0: 4ec4 0bbe 01eb 84bf e4e7 f7bf 95ba 4b3d
000000d0: a362 043d f752 f4bd 0b3b 4e3e d168 84be
000000e0: 3836 043e 7474 9d3c 9edd 633e f3a1 a23e
000000f0: ab68 323c 6b17 26be 41d7 01be 2dc7 c6be
00000100: 0198 9e3e 850e 9f3d 5180 ec3e 38bd 6dbf
00000110: b1b0 04bf fd08 10bf 96f6 293f 0f94 b93e
00000120: 77e0 053f fce5 6fbf 44ef fdbe 08aa f0be
00000130: b893 07bf e2fa e43e 9b38 c93e 50f1 183f
00000140: da1f 5b3d 81fe 62be c2d0 af3e 3fa1 bdbe
00000150: 87b3 133f 2a92 f0be da0d 103f 8709 d6be
00000160: 8af7 52be 3990 623d 4efa ea3e 1b0a 37bf
00000170: 610c fa3e 77f3 4fbe 2342 d7be cc03 1dbf
00000180: 1463 853a 045f 25bb c86f 13bd 66f4 70bd
00000190: 76cb 753c 7765 a63b cc69 5e37 13ce adbb
000001a0: 4110 76bc 1c24 8d3d 13f0 45bb 270b 5dbd
000001b0: 3491 48be 3832 de3c 8551 a03c 3be4 85bc
000001c0: d28d 52bc 65eb e0be 8b5f 8dbd 8fe5 4bbd
000001d0: a1a2 00bc f5c4 89be 176a ffbb 348c ffbd
000001e0: 6add b3bc 3e95 92bd 3f3d 14bc 232a 28bd
000001f0: a416 1cbc daa6 67bd 930b e9bb 5deb c5be

gcn_layers.0.bias f4 [32]
-0.4071639 -0.2156784 -0.07951553 -0.14179468 0.40827942 0.38496202 -0.32957947 -0.28134096
-0.3204549 0.32889786 -0.16009593 -0.067475244 -0.20990072 -0.34235162 -0.36252505 -0.38808915
-0.38043386 -0.20488082 -0.13582158 -0.054652546 -0.38143405 -0.27179158 -0.39741057 -0.2020348
-0.023087585 -0.075519115 -0.39038354 0.28649223 -0.40889427 0.29680192 -0.21413344 -0.06235261
00000000: c977 d0be ccda 5cbe 0ad9 a2bd a032 11be
00000010: 000a d13e be19 c53e a4be a8be ec0b 90be
00000020: aa12 a4be 4d65 a83e 30f0 23be 7630 8abd
00000030: 37f0 56be b648 afbe e29c b9be 9fb3 c6be
00000040: 3ac8 c2be 47cc 51be d014 0bbe 59db 5fbd
00000050: 534b c3be 4428 8bbe 6679 cbbe 36e2 4ebe
00000060: 2d22 bdbc c4a9 9abd 5ae0 c7be 1caf 923e
00000070: 975a d1be 6cf6 973e cc45 5bbe 7365 7fbd

gcn_layers.1.weight f4 [32, 64]
0.121178575 0.28398937 -0.07720746 -0.023285538 -0.18950354 -2.964725 0.13307688 -0.2923406
-0.13562356 -0.31646767 -0.024066193 -0.29848766 -0.23106495 -1.2264429 0.15557712 -0.34351054
-0.6280789 -0.0022250358 0.05500317 0.10735519 0.14135724 -0.39539897 -0.052710745 -0.17566304
-0.2912798 -0.2893815 0.017582452 -0.2148852 0.17386425 -0.04745321 0.030774076 -0.1527599
0.04047497 0.16155703 -0.18183987 0.045222864 0.15221798 -0.14156283 -0.18411447 0.3668274
-0.038652606 -0.33678046 -1.4057733 -0.13925211 0.041916255 -0.23851271 -0.13869959 -1.5894624
0.12429107 0.33436015 -0.093924165 -0.37344804 0.08984964 0.031873304 -0.012724594 -0.105906
-0.14956236 0.12999442 0.053407453 -0.07095503 -0.13922913 0.08978501 -0.4151858 -0.18703072
0.12878203 0.24666691 -0.12695444 -0.15151812 -0.14967819 -0.23221175 0.10890236 -0.012399026
-0.2435126 -0.21698731 0.09811835 -0.093778335 0.102575436 -0.8730509 -0.35154977 -0.36061677
0.06297149 -0.0011077388 0.08037137 -0.024350982 -2.9668524 -0.21254906 -0.16429138 0.13103549
-0.019503262 -0.20939472 0.014399714 -0.084709145 -0.3241207 0.14654353 -2.3196898 -0.17743902
-0.40581426 -0.039625376 0.057755914 0.045270067 -0.19540666 -0.25126463 -0.28167245 0.17797092
0.018312592 0.27815503 -0.09802626 -0.02277804 -0.06142147 -0.35344955 -3.1220303 -2.1820588
-0.80676186 0.03679894 0.10802937 -0.22191872 -0.14810742 -0.3881433 -0.13411121 0.0021623026
-0.88691103 0.06342856 -0.14930701 -0.35908958 -0.10156595 -0.0036870963 -0.2313879 -1.0344646
0.093222685 -0.10622723 0.10134671 -0.021336658 0.052644767 -0.06338974 0.11457779 -0.43066356
0.08093237 0.031303953 -0.15430215 -0.26491198 0.13471892 -0.03323984 -0.041849647 -0.39901534
0.090419 0.045727298 0.13244602 -0.18009174 -0.50902665 -0.1876702 0.051329184 -0.64907247
-0.2092325 -0.3108585 -0.24334696 -0.08475509 -0.27137035 -0.096212044 -0.93736124 0.04582333
0.113363996 -0.34259662 -0.19066852 -0.3596838 -0.3012156 -0.36410904 -0.067006625 -0.07051506
-0.21537407 -0.13965788 0.067716144 -0.16551714 -0.065087564 -0.18547185 -4.2547507 -0.27810326
-0.97217244 -0.14953022 -0.014262943 -0.092526406 -0.14165053 -0.13618958 0.20350425 -0.36778945
-0.12266576 -0.07674066 0.028727189 -0.056018777 0.11222277 0.22220415 0.26737586 0.16923778
-0.038570527 0.10756363 -0.21691997 0.054560706 -0.23351026 -0.5201262 -0.07627256 -0.57566816
-0.1997904 -0.21746102 0.0990224 -0.062043354 -0.29311076 -1.6509957 0.020779882 -0.17055434
-0.32004803 0.11418894 -0.3857745 -0.4431843 -0.6679544 -0.12341429 -0.3979178 -0.14575917
-0.17158559 -0.20762761 0.2156843 -0.09168395 -0.2105511 0.07919532 -0.5782876 -0.18440272
-0.14072202 -0.013342929 -0.26877946 0.061861496 -0.023792211 -0.09805312 -0.10562263 0.41420412
-0.225197 -0.08193023 -0.71917564 -0.31487283 0.103046775 -0.019836446 -1.284801 -0.67334074
-0.21923286 0.07166173 -0.056885235 -0.05861334 -0.18249415 -0.47241595 -0.18081766 -0.7720346
-0.5143634 0.12500358 0.07691787 -0.11007969 0.005856535 -0.34845862 -0.87372434 -0.13227311
00000000: 792c f83d 0e67 913e f21e 9ebd 50c1 bebc
00000010: 370d 42be 0ebe 3dc0 4e45 083e abad 95be
00000020: e7e0 0abe 0d08 a2be 7726 c5bc 60d3 98be
00000030: 4a9c 6cbe 15fc 9cbf 9c4f 1f3e 9de0 afbe
00000040: c7c9 20bf e8d1 11bb 014b 613d 0add db3d
00000050: f4bf 103e bc71 cabe 39e7 57bd 03e1 33be
00000060: a022 95be d029 94be 1309 903c de0a 5cbe
00000070: 7809 323e 4c5e 42bd ea19 fc3c 176d 1cbe
00000080: 15c9 253d 356f 253e 3b34 3abe 9c3b 393d
00000090: 08df 1b3e d9f5 10be 8188 3cbe cdd0 bb3e
000000a0: 3252 1ebd 7d6e acbe 61f0 b3bf 1b98 0ebe
000000b0: 61b0 2b3d ad3c 74be 4407 0ebe 8173 cbbf
000000c0: 518c fe3d 4131 ab3e 505b c0bd 9534 bfbe
000000d0: 1703 b83d 958d 023d d17a 50bc 3fe5 d8bd
000000e0: e026 19be 421d 053e c6c1 5a3d df50 91bd
000000f0: 1592 0ebe 34e1 b73d 3c93 d4be fb84 3fbe
00000100: 70df 033e 4096 7c3e 5800 02be 9127 1bbe
00000110: 3d45 19be ebc8 6dbe 3308 df3d 4925 4bbc
00000120: 5e5b 79be ec31 5ebe 46f2 c83d db0e c0bd
00000130: 1213 d23d 4480 5fbf 55fe b3be c3a2 b8be
00000140: 32f7 803d 8c31 91ba bf99 a43d b67b c7bc
00000150: e9e0 3dc0 76a6 59be 003c 28be 2b2e 063e
00000160: 4ec5 9fbc 926b 56be c7ec 6b3c fd7b adbd
00000170: 26f3 a5be 820f 163e cc75 14c0 93b2 35be
00000180: e3c6 cfbe 384e 22bd 7791 6c3d 1b6d 393d
00000190: af18 48be c2a5 80be 5f37 90be 023e 363e
000001a0: 4a04 963c 566a 8e3e fec1 c8bd 0399 babc
000001b0: 1495 7bbd 57f7 b4be 58cf 47c0 daa6 0bc0
000001c0: f287 4ebf 7cba 163d 813e dd3d a93e 63be
000001d0: 79a9 17be b8ba c6be 7354 09be 6bb5 0d3b
000001e0: 9a0c 63bf d5e6 813d f0e3 18be 97da b7be
000001f0: cf01 d0bd 36a3 71bb f3f0 6cbe 5669 84bf
00000200: 89eb be3d a98d d9bd dd8e cf3d 37ca aebc
00000210: 0aa2 573d 7bd2 81bd c3a7 ea3d ef7f dcbe
00000220: dfbf a53d 9338 003d 6201 1ebe 8ba2 87be
00000230: c2f3 093e 8026 08bd 896a 2bbd bd4b ccbe
00000240: 992d b93d 8c4c 3b3d ee9f 073e f869 38be
00000250: 924f 02bf 9e2c 40be 8d3e 523d 9d29 26bf
00000260: 0b41 56be d828 9fbe f22f 79be 1494 adbd
00000270: 0ef1 8abe d20a c5bd e8f6 6fbf 3eb1 3b3d
00000280: 622b e83d d368 afbe 9c3e 43be 7a28 b8be
00000290: ee38 9abe 806c babe c53a 89bd 336a 90bd
000002a0: 058b 5cbe 7a02 0fbe c3ae 8a3d 537d 29be
000002b0: a14c 85bd 55ec 3dbe eb26 88c0 8d63 8ebe
000002c0: 4be0 78bf 731e 19be 1eaf 69bc 7c7e bdbd
000002d0: d60c 11be 4875 0bbe 6b63 503e e64e bcbe
000002e0: 3038 fbbd 352a 9dbd 4855 eb3c f273 65bd
000002f0: 0dd5 e53d 7c89 633e 7de5 883e ab4c 2d3e
00000300: 21fc 1dbd 524a dc3d 4520 5ebe 0c7b 5f3d
00000310: 501d 6fbe fe26 05bf ca34 9cbd fd5e 13bf
00000320: db95 4cbe 1aae 5ebe 42cc ca3d 2c21 7ebd
00000330: 9d12 96be d453 d3bf 923a aa3c cca5 2ebe
00000340: 56dd a3be e4db e93d 3c84 c5be 0de9 e2be
00000350: 0fff 2abf a2c0 fcbd e2bb cbbe e441 15be
00000360: 22b4 2fbe 559c 54be 58dc 5c3e cbc4 bbbd
00000370: b59a 57be 2831 a23d a80a 14bf 11d4 3cbe
00000380: 6f19 10be 4d9c 5abc 769d 89be 7b62 7d3d
00000390: e2e7 c2bc 13d0 c8bd ad50 d8bd 9012 d43e
000003a0: 0b9a 66be 09cb a7bd e51b 38bf 0337 a1be
000003b0: 300a d33d 0b80 a2bc 5c74 a4bf 0f60 2cbf
000003c0: 947e 60be 63c3 923d 7e00 69bd 8b14 70bd
000003d0: bfdf 3abe 81e0 f1be 4428 39be 0fa4 45bf
000003e0: 52ad 03bf f000 003e 1e87 9d3d 7671 e1bd
000003f0: 2de8 bf3b 2b69 b2be 66ac 5fbf 9a72 07be

gcn_layers.1.bias f4 [64]
-0.12285705 -0.08468831 -0.13115124 -0.08989106 -0.10749633 0.0914557 -0.1721799 -0.09159739
-0.14197394 -0.12694749 -0.12894024 -0.07786017 0.042721644 0.03597684 -0.10496981 -0.10943756
0.08894601 -0.05359478 -0.10625283 -0.24563417 -0.034471862 -0.14122944 -0.18597358 -0.27468464
-0.14652178 -0.13385843 -0.18395507 -0.071005106 -0.037253372 -0.09954932 -0.023533871 -0.15241446
-0.3146536 -0.2507475 -0.09398368 -0.15347715 -0.042562816 -0.06434823 -0.06756834 -0.18165499
-0.12756576 -0.09504685 0.10941004 -0.15026475 -0.08519067 -0.089603 -0.24280123 0.0309674
-0.09637454 -0.31745505 -0.02071448 -0.117616184 -0.088712804 -0.21239811 -0.07929999 -0.29464313
-0.2215936 -0.2667675 -0.121685445 -0.14062949 -0.1318559 -0.15215874 -0.14173378 -0.18487982
00000000: 7a9c fbbd 1171 adbd 834c 06be ce18 b8bd
00000010: 0927 dcbd 204d bb3d ed4f 30be 6a97 bbbd
00000020: 9e61 11be 86fe 01be e908 04be 2775 9fbd
00000030: e4fc 2e3d 735c 133d 69fa d6bd cd20 e0bd
00000040: 5329 b63d 3386 5bbd 159b d9bd 8687 7bbe
00000050: 5e32 0dbd 739e 10be dc6f 3ebe 77a3 8cbe
00000060: ce09 16be 2f12 09be b85e 3cbe 206b 91bd
00000070: fe96 18bd 84e0 cbbd 1bca c0bc 8912 1cbe
00000080: 471a a1be fa61 80be 847a c0bd 1d29 1dbe
00000090: 5956 2ebd 01c9 83bd 4561 8abd c403 3abe
000000a0: 99a0 02be eca7 c2bd 5f12 e03d 01df 19be
000000b0: 7278 aebd c781 b7bd e3a0 78be 58af fd3c
000000c0: 0460 c5bd 7889 a2be 6ab1 a9bc c1e0 f0bd
000000d0: 0faf b5bd e47e 59be 0868 a2bd 77db 96be
000000e0: 6fe9 62be c095 88be 3836 f9bd 2d01 10be
000000f0: 3c05 07be 80cf 1bbe a922 11be 2351 3dbe

temporal_cnn.network.0.weight f4 [64, 512, 3]
0.008886594 -0.009828107 -0.015531127 0.02158835 0.012131525 0.002348885 -0.0040991483 -0.15972969
-0.020842664 -0.009826122 -0.036316156 0.0050955103 0.050098747 0.04653651 0.024945397 -0.06733972
-0.06329972 -0.063995495 0.00905344 -0.069401175 -0.07785308 0.022474783 0.0049547777 0.011457216
0.011883364 -0.019797742 -0.026512556 -0.010284712 -0.022661645 0.0064503984 0.01566013 0.021782227
0.010814737 0.05049572 0.01946705 0.01278264 0.022446048 -0.0125349155 -0.0914867 -0.015314039
-0.1365109 -0.21412306 -0.021495003 -0.0014541072 -0.0002984816 0.020187428 0.00035665938 0.0061607757
-0.07495884 -0.07178003 -0.037258312 0.0018425275 -0.009535977 -0.03178764 -0.0024948157 -0.11229579
-0.054476477 0.052344102 -0.0106036905 -0.10403225 -0.0561872 -0.06405873 -0.12705654 -0.10952333
-0.09515463 -0.07767987 0.020054933 -0.044313107 -0.01108791 -0.06928386 -0.023912376 -0.0155250365
0.020861622 -0.021111907 -0.05470866 -0.010762297 -0.01496164 -0.025257094 -0.031069854 -0.01492576
-0.02807477 -0.06348364 -0.06942254 -0.07833955 -0.037065737 -0.028517578 0.012444766 -0.0047536795
0.01964109 0.0040416312 -0.030864472 -0.045691367 -0.008377317 0.033982318 0.007505219 0.015934581
-0.02279618 -0.040703043 -0.005612895 -0.02566257 -0.026580175 -0.016129471 -0.020214764 -0.035961006
-0.03526323 -0.007372717 -0.039742827 0.0043612546 -0.03129291 -0.0557117 0.009471907 -0.04549541
-0.038229372 -0.00938543 -0.069077455 -0.053130023 -0.075963914 -0.09058623 -0.075558074 -0.038885254
0.013479333 -0.023621244 -0.023111483 -0.07316221 -0.027010515 -0.04098401 -0.13716902 -0.14261337
-0.13961896 0.043194506 0.025610188 0.021743083 -0.030520052 0.009079543 -0.0034336583 -0.012127717
-0.018174807 -0.01288913 -0.06621711 -0.09437179 -0.07548142 -0.15153141 -0.12904942 -0.13461687
-0.0040621827 -0.0105671445 -0.035010576 0.039940514 -0.009157982 -0.011609359 -0.02900821 -0.005793008
-0.09594962 -0.014792425 -0.016588831 -0.02149786 -0.0025231247 0.004870754 0.020725004 0.006425129
-0.056924503 -0.02131612 0.013954805 0.004191924 0.04235119 -0.028267859 -0.05355342 -0.04923426
-0.0058939815 -0.0067006983 -0.029775867 -0.027910396 -0.011088587 -0.009679779 -0.02266681 -0.0038094486
0.0011981776 -0.032621317 -0.05534421 -0.025366182 0.028904736 0.017802576 0.0047259736 0.004335447
-0.026072482 -0.11026052 -0.024608906 -0.015281947 -0.001545021 0.003559797 -0.007534154 0.009460988
-0.023511898 0.023083523 0.020078111 0.034139693 -0.039772082 -0.02772292 0.016519234 -0.049531493
-0.044838984 -0.016736528 -0.037399866 -0.02161029 -0.0067007164 -0.0019062773 0.0006026492 -0.080245085
-0.06206422 -0.052266374 0.0015636273 -0.039727572 -0.071612924 0.057747647 -0.077264875 0.039603554
-0.015982691 -0.027894577 -0.029237421 -0.01887345 0.011079604 0.0065905326 -0.017591238 -0.020887401
-0.035935964 -0.07047537 -0.047620162 -0.06506208 0.0070103533 -0.0657566 -0.02504449 -0.009145637
-0.10935844 -0.12962101 -0.0471262 -0.006136756 -0.0031560143 -0.00733193 -0.04414603 -0.0019746346
-0.09957265 -0.010789805 -0.04055197 -0.01851225 -0.043959815 -0.035013475 -0.059916407 -0.09573787
-0.08082415 -0.020858686 -0.15059794 -0.032063376 -0.0893176 -0.09402197 -0.1038495 -0.07334025
00000000: 1499 113c 1206 21bc 4576 7ebc 0dda b03c
00000010: 4ec3 463c c0ef 193b 2652 86bb 2e90 23be
00000020: 3cbe aabc befd 20bc 40c0 14bd 3df8 a63b
00000030: 5834 4d3d 119d 3e3d 4a5a cc3c 68e9 89bd
00000040: 49a3 81bd 1210 83bd e154 143c 3422 8ebd
00000050: 7071 9fbd 091d b83c b05b a23b 0cb7 3b3c
00000060: 71b2 423c e02e a2bc dc30 d9bc 3581 28bc
00000070: eaa4 b9bc dd5d d33b ac49 803c a470 b23c
00000080: 4b30 313c 9ad4 4e3d 5d79 9f3c 476e 513c
00000090: c6e0 b73c 3f5f 4dbc 615d bbbd bce7 7abc
000000a0: 83c9 0bbe 1343 5bbe 4a16 b0bc be97 beba
000000b0: 867d 9cb9 1b60 a53c 03fe ba39 55e0 c93b
000000c0: 0584 99bd 6901 93bd 2c9c 18bd f780 f13a
000000d0: c93c 1cbc c233 02bd 1080 23bb 56fb e5bd
000000e0: ba22 5fbd c566 563d 1abb 2dbc dc0e d5bd
000000f0: 8d24 66bd 3931 83bd 1c1b 02be c54d e0bd
00000100: 6ee0 c2bd a016 9fbd 3e4a a43c a981 35bd
00000110: 11aa 35bc b2e4 8dbd e3e3 c3bc b95c 7ebc
00000120: fee5 aa3c e1f2 acbc 3016 60bd 5854 30bc
00000130: ab21 75bc f7e7 cebc 3586 febc 2d8b 74bc
00000140: 0ffd e5bc b603 82bd 682d 8ebd 7c70 a0bd
00000150: 3ed2 17bd b29d e9bc 22e5 4b3c c1c4 9bbb
00000160: 5ae6 a03c a96f 843b 7dd7 fcbc df26 3bbd
00000170: 0441 09bc 0b31 0b3d 57ee f53b 3d89 823c
00000180: 0ebf babc 3cb8 26bd 60ec b7bb 4f3a d2bc
00000190: abbe d9bc f421 84bc 6f99 a5bc d94b 13bd
000001a0: 2d70 10bd d596 f1bb 60c9 22bd dbe8 8e3b
000001b0: ff2c 00bd f431 64bd 0f30 1b3c 6559 3abd
000001c0: 6796 1cbd 59c5 19bc 7b78 8dbd de9e 59bd
000001d0: f892 9bbd 4685 b9bd 31be 9abd 2546 1fbd
000001e0: 6cd8 5c3c 5781 c1bc 4b54 bdbc 12d6 95bd
000001f0: 2845 ddbc d9de 27bd 0976 0cbe 3d09 12be
00000200: 46f8 0ebe b9ec 303d 75cc d13c 8d1e b23c
00000210: 3005 fabc 5dc2 143c 3a07 61bb 55b3 46bc
00000220: 55e3 94bc ee2c 53bc d69c 87bd ff45 c1bd
00000230: 0196 9abd 0d2b 1bbe 8825 04be 01d9 09be
00000240: 0f1c 85bb d121 2dbc 4067 0fbd aa98 233d
00000250: 5c0b 16bc 2e35 3ebc a0a2 edbc 46d3 bdbb
00000260: 3c81 c4bd ed5b 72bc 4de5 87bc 481c b0bc
00000270: 025b 25bb d99a 9f3b 7cc7 a93c e389 d23b
00000280: ab29 69bd 259f aebc b2a2 643c 685c 893b
00000290: 7178 2d3d ff91 e7bc d55a 5bbd dda9 49bd
000002a0: 4d22 c1bb 8891 dbbb 85ec f3bc 58a4 e4bc
000002b0: e8ac 35bc f097 1ebc bfaf b9bc f1a7 79bb
000002c0: 2b0c 9d3a ee9d 05bd 9cb0 62bd bdcc cfbc
000002d0: a0c9 ec3c b5d6 913c 57dc 9a3b 5e10 8e3b
000002e0: f595 d5bc 44d0 e1bd 9e98 c9bc 2261 7abc
000002f0: 4d82 caba 7c4b 693b 11e1 f6bb 4302 1b3c
00000300: 069c c0bc a819 bd3c da7a a43c 10d6 0b3d
00000310: 0de8 22bd 2d1b e3bc 5853 873c 89e1 4abd
00000320: 15a9 37bd 0b1b 89bc 9a30 19bd 1008 b1bc
00000330: af91 dbbb 0ddc f9ba 1afb 1d3a 8957 a4bd
00000340: 0d37 7ebd 4415 56bd a0f2 cc3a 61b9 22bd
00000350: cca9 92bd cc88 6c3d 0c3d 9ebd 5637 223d
00000360: 22ee 82bc 2b83 e4bc 5183 efbc 7e9c 9abc
00000370: 3a87 353c 65f5 d73b 801b 90bc 0e1c abbc
00000380: 9731 13bd 6455 90bd 5c0d 43bd 453f 85bd
00000390: 1bb7 e53b 65ab 86bd 1a2a cdbc 95d7 15bc
000003a0: 51f7 dfbd 5fbb 04be 6707 41bd d716 c9bb
000003b0: 22d5 4ebb b040 f0bb 78d2 34bd df68 01bb
000003c0: bfec cbbd b9c7 30bc d319 26bd 01a7 97bc
000003d0: 350f 34bd 4a6a 0fbd e86a 75bd 3712 c4bd
000003e0: 2287 a5bd d6df aabc 5936 1abe e354 03bd
000003f0: 25ec b6bd 978e c0bd 0caf d4bd 6a33 96bd

temporal_cnn.network.0.bias f4 [64]
-0.064229906 0.31323346 -0.13003851 0.04645584 -0.027088696 -0.04893697 -0.10328701 -0.028562006
-0.021204287 -0.017787497 -0.053368356 -0.12576903 -0.033891704 -0.037541505 -0.07983304 -0.08552203
-0.03674325 -0.02508402 -0.008996645 -0.032219782 0.04337195 -0.086624496 -0.007543464 0.21285026
-0.058759406 -0.043337207 -0.0395444 -0.03615699 -0.051847182 -0.08132794 -0.063385405 0.057393607
-0.054143984 -0.07716137 -0.027383262 -0.18810229 -0.020157326 -0.028098686 0.39571452 -0.035073876
-0.041888423 -0.043177076 0.1516099 -0.05373382 0.3044048 -0.042057175 -0.043737087 -0.04592473
-0.03352879 -0.037206322 -0.014401815 -0.033960927 -0.26020953 -0.05174516 0.1481034 -0.073160626
-0.029412229 -0.029139098 -0.02785347 -0.012404308 -0.025830219 -0.0056030564 -0.045573063 -0.0354519
00000000: f88a 83bd 2360 a03e d128 05be 7b48 3e3d
00000010: 1de9 ddbc 2272 48bd 2488 d3bd defa e9bc
00000020: 9db4 adbc 16b7 91bc c798 5abd 99c9 00be
00000030: 07d2 0abd 1fc5 19bd 817f a3bd 2d26 afbd
00000040: 1780 16bd 017d cdbc aa66 13bc e4f8 03bd
00000050: c9a6 313d 2f68 b1bd 2a2f f7bb 6bf5 593e
00000060: b4ad 70bd 5b82 31bd 4ff9 21bd 5a19 14bd
00000070: b65d 54bd 438f a6bd 35d0 81bd 8f15 6b3d
00000080: 15c6 5dbd c806 9ebd dd52 e0bc e39d 40be
00000090: fa20 a5bc 372f e6bc 189b ca3e a0a9 0fbd
000000a0: 3293 2bbd 72da 30bd a03f 1b3e fe17 5cbd
000000b0: f2da 9b3e 2544 2cbd a925 33bd 921b 3cbd
000000c0: 7c55 09bd a865 18bd 97f5 6bbc 9d1a 0bbd
000000d0: 2f3a 85be bcf2 53bd 6ba8 173e 3dd5 95bd
000000e0: eaf1 f0bc 1eb5 eebc f62c e4bc 703b 4bbc
000000f0: e599 d3bc d899 b7bb d2aa 3abd 0336 11bd

temporal_cnn.network.3.weight f4 [128, 64, 3]
-0.013049446 -0.03907952 -0.034217175 -1.846926 -2.234362 -2.5816915 -0.32257366 0.008755332
0.6533828 -0.49327707 -0.47019747 -0.50822127 -0.015985413 0.057893638 0.013617065 -0.030288218
-0.058752537 0.038654305 -0.07780439 0.03374351 -0.03953995 -0.59378356 -0.26021677 -0.6982287
-0.06498809 0.0055269813 -0.03325365 -0.027559575 0.0024308679 0.013414319 -0.0003645226 -0.023938268
-0.04723818 -0.8329609 -0.81191456 -0.3173457 0.046691664 0.038245812 -0.059657834 -0.06533229
-0.03900417 -0.05766402 -0.073627986 0.026481688 -0.04678679 -0.1147333 -0.7341031 -0.057200026
0.059960265 0.056979723 -0.0009566983 0.011777159 0.009263458 0.060004227 -0.5370914 -0.18134211
-0.07764624 -0.058095124 0.008220033 0.041713614 0.12674025 -1.3547608 0.031365227 -0.036224704
0.047652032 0.0031044504 -0.06283197 -0.043835644 -0.07803861 -0.56568706 -0.87784195 -0.89055
0.024617903 0.019880155 -0.010623663 -0.20396416 -0.39275134 -0.15501188 0.049545586 0.038932208
-0.022507492 0.040738773 0.0677829 -0.04811198 -0.021293826 -0.091394916 -0.09270637 -0.047341097
-0.08278397 -0.09578399 -0.013046562 0.013101336 -0.0022559934 -0.060491703 -0.46124548 -0.19297458
0.03948255 -0.043565027 0.015757047 -0.033729114 0.052556917 -0.005642017 -0.0023669377 0.030570729
-0.019957785 -0.18477882 -0.37700322 -0.1886248 -0.044476606 -0.06725057 0.04708662 0.0019980394
0.010419662 0.0472935 -3.5694785 -3.4238865 -1.1583152 -0.040564947 -0.07666084 -0.0002451133
0.0066351304 -0.07519998 0.03755095 -0.057720028 0.08455135 -0.040478677 -0.41491708 -0.38334945
-0.63073707 -0.005116833 -0.06796367 -0.02527912 0.094520226 -0.6222147 -0.027211191 0.015590622
-0.04125075 -0.00837106 -0.14380623 -0.09756979 -0.13119918 0.002168919 0.005611187 -0.008252837
-0.5819931 -0.8908864 -0.27356014 -0.015947111 -0.062051088 0.039227635 -0.19399318 -0.35796672
-0.042223074 0.07360316 0.03732829 0.06100791 -0.17674543 -0.34790894 -0.12474711 -0.0050838226
-0.023614919 -0.06450909 -0.14065246 -0.18778762 -0.07182783 -0.040713932 -0.07179808 0.054692287
0.0049010804 -0.08194844 -0.04990495 -0.043165695 -0.1769247 0.042442106 0.019796742 -0.000741276
-0.06521326 0.031713445 -0.28773487 -0.16058673 0.053208657 -0.029812366 0.020937646 -0.0021124308
0.025865057 -0.0027122716 -0.0077356584 -0.009884197 -0.08346434 -0.056972247 8.044217e-05 0.02141379
0.03195489 -0.0706543 -0.05197847 0.075593986 -0.15521723 -0.1809854 -0.3245406 -0.65641665
-0.7876173 -0.7235636 -0.7133282 -0.82186127 0.043441035 0.05193741 -0.004494702 -0.0029018011
-0.015686443 0.02041751 -0.055622086 -0.052877765 -0.1662533 -0.9609447 -0.60995185 -0.7431797
0.018143082 0.03436145 -0.024321273 0.018942818 -7.064944e-05 0.05837385 0.009068114 0.019392293
0.090438634 -1.1834344 -1.2273182 -0.57974744 -0.06073252 -0.0938226 -0.093044125 -0.062728755
-0.054627147 -0.06971694 0.010618383 -0.019282714 0.004190979 0.076645955 -0.2795736 -0.21128173
-0.023082148 -0.065793686 0.0203805 -0.10587341 -0.08141476 -0.066968426 -0.60486794 -0.45485485
-0.9958255 0.09544502 0.054745283 -0.06690934 0.1497556 0.2249149 -0.056078453 -0.05492895
00000000: 58cd 55bc d911 20bd 4f27 0cbd 1268 ecbf
00000010: c9ff 0ec0 6f3a 25c0 6028 a5be 8672 0f3c
00000020: 1844 273f d08e fcbe b9bd f0be ca1a 02bf
00000030: d7f3 82bc e121 6d3d 1c1a 5f3c ff1e f8bc
00000040: 80a6 70bd fa53 1e3d e857 9fbd a236 0a3d
00000050: a5f4 21bd 3302 18bf 223b 85be 1ebf 32bf
00000060: 7a18 85bd ae1b b53b fb34 08bd 9ec4 e1bc
00000070: 324f 1f3b bbc7 5b3c 651d bfb9 301a c4bc
00000080: d27c 41bd ed3c 55bf a2d9 4fbf 237b a2be
00000090: c23f 3f3d a4a7 1c3d c65b 74bd f0cc 85bd
000000a0: d6c2 1fbd 1c31 6cbd 45ca 96bd 20f0 d83c
000000b0: 81a3 3fbd 4bf9 eabd 2eee 3bbf 934a 6abd
000000c0: e598 753d 9263 693d f0ca 7aba fcf4 403c
000000d0: c2c5 173c fec6 753d d27e 09bf bfb1 39be
000000e0: fe04 9fbd 27f5 6dbd 51ad 063c e5db 2a3d
000000f0: 32c8 013e cd68 adbf d378 003d 5b60 14bd
00000100: c72e 433d 0974 4b3b 0cae 80bd 018d 33bd
00000110: b5d2 9fbd ded0 10bf 40ba 60bf 16fb 63bf
00000120: 7cab c93c b5db a23c df0e 2ebc fbdb 50be
00000130: b416 c9be 6fbb 1ebe 50f0 4a3d 6177 1f3d
00000140: a261 b8bc b3dd 263d c3d1 8a3d 1111 45bd
00000150: 6470 aebc 422d bbbd d6dc bdbd bde8 41bd
00000160: a48a a9bd 662a c4bd 3fc1 55bc fca6 563c
00000170: 4ad9 13bb 26c6 77bd 5e28 ecbe 219b 45be
00000180: 74b8 213d 3e71 32bd ec14 813c 8a27 0abd
00000190: ec45 573d abe0 b8bb a01e 1bbb 776f fa3c
000001a0: 827e a3bc a936 3dbe 9106 c1be dc26 41be
000001b0: 1a2d 36bd abba 89bd e6dd 403d 8af1 023b
000001c0: 3bb7 2a3c d4b6 413d 5672 64c0 f520 5bc0
000001d0: ac43 94bf 6e27 26bd 5c00 9dbd 8d82 80b9
000001e0: 826b d93b 7202 9abd 06cf 193d d66b 6cbd
000001f0: 4229 ad3d f8cc 25bd 0370 d4be 6146 c4be
00000200: fc77 21bf 1bab a7bb 8930 8bbd 2816 cfbc
00000210: d293 c13d 7649 1fbf 01ea debc cf6f 7f3c
00000220: 8cf6 28bd c526 09bc f141 13be acd2 c7bd
00000230: 1459 06be 6c24 0e3b 0cde b73b e836 07bc
00000240: 80fd 14bf 2211 64bf 1310 8cbe 84a3 82bc
00000250: 4829 7ebd 28ad 203d 26a6 46be 6a47 b7be
00000260: 1af2 2cbd 41bd 963d 8de5 183d 6ee3 793d
00000270: c1fc 34be 1f21 b2be 6a7b ffbd 3296 a6bb
00000280: 1374 c1bc 571d 84bd 3307 10be 664b 40be
00000290: 781a 93bd a7c3 26bd df0a 93bd 0505 603d
000002a0: 3e99 a03b 95d4 a7bd 2269 4cbd 83ce 30bd
000002b0: c02b 35be c6d7 2d3d c72c a23c 3152 42ba
000002c0: 888e 85bd f5e5 013d fc51 93be d970 24be
000002d0: 52f1 593d 1039 f4bc 6d85 ab3c b570 0abb
000002e0: f5e2 d33c 5ec0 31bb 687b fdbb 54f1 21bc
000002f0: 5aef aabd bb5b 69bd 10b3 a838 f96b af3c
00000300: 21e3 023d 34b3 90bd 60e7 54bd 05d1 9a3d
00000310: 44f1 1ebe 3d54 39be 2f2a a6be ec0a 28bf
00000320: 4aa1 49bf 773b 39bf ad9c 36bf 8065 52bf
00000330: 3aef 313d 52bc 543d 4b48 93bb 252c 3ebb
00000340: db80 80bc 9f42 a73c fcd3 63bd 5b96 58bd
00000350: 4e3e 2abe 7900 76bf ce25 1cbf 0641 3ebf
00000360: cda0 943c 97be 0c3d 683d c7bc f82d 9b3c
00000370: a129 94b8 6b19 6f3d 6d92 143c 96dc 9e3c
00000380: e437 b93d c77a 97bf c318 9dbf 546a 14bf
00000390: aac2 78bd 1026 c0bd eb8d bebd ef77 80bd
000003a0: b7c0 5fbd c1c7 8ebd baf8 2d3c c8f6 9dbc
000003b0: 7b54 893b 8ef8 9c3d 4524 8fbe 3d5a 58be
000003c0: c616 bdbc d7be 86bd 02f5 a63c 29d4 d8bd
000003d0: c8bc a6bd be26 89bd a0d8 1abf bce2 e8be
000003e0: 6cee 7ebf ae78 c33d 973c 603d c407 89bd
000003f0: 8859 193e 1750 663e 85b2 65bd 2efd 60bd

temporal_cnn.network.3.bias f4 [128]
0.23885384 0.4861715 0.35200864 -0.45461166 0.32114747 -0.07466764 0.2354482 -0.12376002
-0.4473982 0.04913585 0.4497875 0.3679985 -0.15703428 0.34817493 -0.17007825 -0.08368959
-0.25308147 0.4909953 0.28757393 -0.32577083 0.20659055 -0.18422379 -0.15996228 -0.18819423
-0.23986372 -0.17390154 -0.48827752 -0.14673172 -0.1590008 -0.12984188 -0.3241256 0.6335024
-0.14913706 -0.20492128 0.043132167 -0.4704448 -0.181888 0.3316473 -0.21569167 -0.106595255
0.5367455 -0.13363336 -0.46308252 0.1318306 0.39408463 0.3730202 0.30063346 -0.1974651
-0.0412193 0.05545797 0.3295788 0.30680513 0.25751212 -0.25291166 0.4094501 -0.2576418
0.4061063 -0.31021228 -0.08003621 0.01728129 0.3263367 -0.13529542 0.38030374 0.4218895
0.01664681 0.33749878 -0.30308834 -0.17279229 -0.15518893 0.24204493 0.23430221 -0.1504218
-0.059365254 0.23902705 0.21738732 0.3588012 0.20260008 -0.1901667 0.27003634 -0.16498859
0.40996113 -0.21659029 -0.016488194 -0.09106123 -0.154093 0.5325256 -0.20377462 0.007058716
0.31544554 -0.18085663 -0.11576402 0.13385555 0.2508038 0.19763333 0.34322655 0.2508838
0.16086528 0.6845285 -0.39534983 -0.23333274 -0.39737496 -0.333059 -0.4683502 -0.12175488
0.4153217 -0.18008399 0.21873696 0.23689368 -0.4368546 -0.44431278 0.35609508 0.19448088
-0.1414447 0.12374143 -0.16159754 -0.10204131 0.306197 0.42805395 -0.07372391 0.21459997
0.0323034 0.31390604 -0.15494134 0.36426577 -0.3664689 -0.20458342 0.30739036 0.3446338
00000000: 1a96 743e 79eb f83e 7a3a b43e dcc2 e8be
00000010: 716d a43e 59eb 98bd 5519 713e e575 fdbd
00000020: 6011 e5be ac42 493d 8c4a e63e 4d6a bc3e
00000030: 98cd 20be fc43 b23e fe28 2ebe 7365 abbd
00000040: e593 81be bc63 fb3e e43c 933e 6fcb a6be
00000050: 798c 533e 29a5 3cbe 27cd 23be fdb5 40be
00000060: d69e 75be 3f13 32be 83ff f9be d740 16be
00000070: 1bd1 22be 45f5 04be caf3 a5be 372d 223f
00000080: 63b7 18be e2d6 51be 5bab 303d 24de f0be
00000090: d940 3abe adcd a93e 47de 5cbe 9d4e dabd
000000a0: 2768 093f 2fd7 08be 2719 edbe 9afe 063e
000000b0: 76c5 c93e 81fc be3e a1ec 993e 4b34 4abe
000000c0: 92d5 28bd e527 633d 8dbe a83e 9015 9d3e
000000d0: a1d8 833e a37d 81be 72a3 d13e a0e9 83be
000000e0: 2aed cf3e 25d4 9ebe 06ea a3bd 7e91 8d3c
000000f0: 9b15 a73e e28a 0abe 2cb7 c23e e701 d83e
00000100: e45e 883c a4cc ac3e 652e 9bbe 76f0 30be
00000110: d9e9 1ebe a0da 773e ebec 6f3e 2c08 1abe
00000120: fb28 73bd 82c3 743e c89a 5e3e cab4 b73e
00000130: 6576 4f3e 0fbb 42be 3442 8a3e c5f2 28be
00000140: 6de6 d13e d8c9 5dbe 4012 87bc 4f7e babd
00000150: 8eca 1dbe 9953 083f 4baa 50be cd4c e73b
00000160: 1482 a13e 7b32 39be b015 edbd 6e11 093e
00000170: 5b69 803e 6460 4a3e 64bb af3e d773 803e
00000180: deb9 243e 433d 2f3f 4b6b cabe c7ee 6ebe
00000190: bb74 cbbe b686 aabe 99cb efbe 9f5a f9bd
000001a0: 0ca5 d43e f067 38be 95fc 5f3e 4294 723e
000001b0: 68ab dfbe f77c e3be 1852 b63e ff25 473e
000001c0: e1d6 10be 266c fd3d d379 25be 09fb d0bd
000001d0: dac5 9c3e e329 db3e 90fc 96bd 18c0 5b3e
000001e0: 9250 043d 4bb8 a03e f1a8 1ebe 0b81 ba3e
000001f0: d0a1 bbbe 517e 51be 4562 9d3e d773 b03e

mlp.0.weight f4 [128, 640]
-0.2563659 0.053927213 -0.38007975 -0.18582536 -0.34185442 0.33508044 -1.0226421 -0.5725068
-0.0002099804 -0.1318711 -0.12754028 -0.47357395 -0.25092706 -0.36658588 -0.01984488 0.0153328655
0.0638023 -0.14683692 -0.71945274 -0.5617095 -0.32032946 0.0006749231 -0.39060068 0.0012545235
-0.12180666 -0.25986302 0.021174556 -0.005092282 -0.006351054 -0.23961431 -0.45502236 -0.2701496
-0.6099935 -0.121056214 -0.2984621 -0.25431228 -0.17613466 -0.102813005 0.11003006 -0.77073073
-0.06817428 0.06484897 0.60721654 -0.2836022 -0.23982696 0.024421569 -0.47241 0.12799957
-0.14638111 -0.3176824 -0.5028115 -0.0022416306 -0.0061765276 -0.39878783 -0.06493984 -0.07890007
-0.03000914 0.10023981 -0.34602347 -0.14389563 -0.12514484 -0.9528545 -0.7028492 -0.34792694
-0.09055337 -0.17141682 -0.48150527 -0.05718985 -0.092176214 0.268871 -0.30817524 -0.044863984
0.020551251 -0.12930281 -6.319463e-05 -0.11428202 0.36040318 -0.30218965 -0.08440037 -0.08069504
0.16861783 -0.13926202 -0.42478573 -0.087302536 -0.20156099 0.034768764 -0.12977004 -0.17590553
0.0038091687 -0.05018991 0.016150476 0.010393418 0.06007818 -0.07620362 -0.39702898 -0.22342616
-0.1348581 -0.18975106 -0.12322866 -0.09791743 -0.008744504 0.035632618 -0.07428465 -0.39719212
-0.0751629 0.085389905 0.18454112 -0.2710309 0.012502116 -0.03521475 -0.008169938 -0.035323758
-0.17390773 -0.13080853 -0.4924201 -0.0123481285 0.032815296 -0.19103684 -0.15000069 -0.119487904
-0.12174497 -0.25958523 -0.006023468 0.013726528 -0.09727379 -0.123413734 -0.73555773 -0.4313761
-0.029242145 -0.11445838 -0.30576882 -0.059255168 -0.13319 0.02222644 -0.080294184 -0.058810804
-0.025853552 -0.1106622 0.02109641 0.05916268 -0.6781691 0.01061909 -0.08996172 -0.018734632
-0.21392873 -0.16577634 -0.12005072 -0.03886068 -0.27758244 0.0532609 -0.096219845 -0.09439951
-0.08267004 -0.024576705 0.09224492 0.02433313 -0.10570148 0.04125109 -0.3411148 -0.12367131
-0.1731438 -0.25489986 -0.08895811 -0.22832842 0.018496627 -0.049789827 -0.06631431 -0.022981407
0.008983174 -0.027192019 -0.044298295 -0.07347061 0.0062003755 0.04617438 -0.24225679 0.08741835
0.06094619 0.0014216575 0.010129216 -0.0876517 0.023159968 -0.0861371 -0.05145228 -0.015390131
-0.260911 -0.24859509 -0.010496752 0.01404933 -0.050741043 -0.03518086 -0.5486419 -0.2397973
-0.067404464 -0.028854704 -0.3615983 -0.117718734 -0.16741404 0.33401898 -0.94441915 -0.51992095
-0.013508466 -0.014202943 -0.15366803 -0.29126793 0.094893314 -0.024727903 0.1195466 0.02902772
-0.035320107 -0.11579563 -0.68137103 -0.5445457 -0.07808977 0.06901815 -0.15224439 -0.10328727
-0.09038461 -0.12498052 -0.018157147 0.008804429 -0.04137711 -0.1620844 -0.44422644 -0.19900121
-0.5489883 -0.17143264 -0.07133351 -0.112866126 0.09840372 -0.092464976 0.08304313 -0.5930805
-0.043951035 0.04847835 0.42387706 -0.46002772 -0.0072581978 0.0096500395 -0.20742473 0.068509325
-0.31972912 -0.26336187 -0.86742824 0.040532105 0.018853407 -0.24340464 -0.031545553 -0.19062866
-0.14146383 -0.37670463 0.06109412 0.0066346424 -0.034730606 -0.7022044 -0.49450755 -0.16007288
00000000: 6442 83be c8e2 5c3d d099 c2be 0149 3ebe
00000010: 8b07 afbe aa8f ab3e f0e5 82bf ce8f 12bf
00000020: 2f2e 5cb9 3809 07be eb99 02be 4978 f2be
00000030: 8379 80be 25b1 bbbe bb91 a2bc b336 7b3c
00000040: c8aa 823d 6b5c 16be 0e2e 38bf 32cc 0fbf
00000050: 3902 a4be 53ed 303a d0fc c7be d36e a43a
00000060: c575 f9bd c40c 85be 4376 ad3c 28dd a6bb
00000070: 811c d0bb 745d 75be b1f8 e8be 0c51 8abe
00000080: 8928 1cbf 52ec f7bd 06d0 98be 3835 82be
00000090: a55c 34be a08f d2bd 7157 e13d 9c4e 45bf
000000a0: f59e 8bbd 89cf 843d 8b72 1b3f 4f34 91be
000000b0: 3395 75be be0f c83c b9df f1be 5212 033e
000000c0: eee4 15be 44a7 a2be 41b8 00bf 52e8 12bb
000000d0: 7864 cabb eb2d ccbe 2eff 84bd 5c96 a1bd
000000e0: bad5 f5bc 884a cd3d fd29 b1be 6059 13be
000000f0: f825 00be 46ee 73bf eded 33bf 7b23 b2be
00000100: 0c74 b9bd e487 2fbe dc87 f6be e73f 6abd
00000110: e2c6 bcbd 76a9 893e 25c9 9dbe 4cc3 37bd
00000120: 195b a83c f567 04be 5c87 84b8 b10c eabd
00000130: c486 b83e 9ab8 9abe 1ada acbd 7143 a5bd
00000140: 27aa 2c3e b49a 0ebe 847d d9be accb b2bd
00000150: 0166 4ebe b169 0e3d 70e2 04be 9420 34be
00000160: 3fa3 793b ef93 4dbd 014e 843c 2849 2a3c
00000170: 8a14 763d a510 9cbd 6247 cbbe d4c9 64be
00000180: 3e18 0abe 1a4e 42be 4f5f fcbd ef88 c8bd
00000190: 1c45 0fbc 82f3 113d 8d22 98bd c45c cbbe
000001a0: 02ef 99bd e7e0 ae3d 59f8 3c3e 90c4 8abe
000001b0: add5 4c3c 573d 10bd 34db 05bc a5af 10bd
000001c0: de14 32be acf2 05be 7d1e fcbe ce4f 4abc
000001d0: 5569 063d 299f 43be c899 19be 13b6 f4bd
000001e0: 6d55 f9bd 5be8 84be 8360 c5bb 3be5 603c
000001f0: 7b37 c7bd 57c0 fcbd 834d 3cbf 54dd dcbe
00000200: 398d efbc 2869 eabd bb8d 9cbe 8cb5 72bd
00000210: f662 08be 3914 b63c 4771 a4bd 99e3 70bd
00000220: d4ca d3bc dda2 e2bd 61d2 ac3c 9154 723d
00000230: 7d9c 2dbf b1fb 2d3c da3d b8bd 5f79 99bc
00000240: 2210 5bbe 46c1 29be 27dd f5bd 602c 1fbd
00000250: 491f 8ebe 1a28 5a3d e90e c5bd 8854 c1bd
00000260: e94e a9bd 1655 c9bc e8ea bc3d 4656 c73c
00000270: 047a d8bd e7f6 283d 99a6 aebe 6247 fdbd
00000280: 9c4c 31be 3c82 82be ab2f b6bd edce 69be
00000290: 3d86 973c 6bf0 4bbd cccf 87bd 8143 bcbc
000002a0: 2a2e 133c ccc1 debc 2172 35bd c277 96bd
000002b0: 852c cb3b 5921 3d3d 2a12 78be 6408 b33d
000002c0: b6a2 793d e956 ba3a 03f5 253c bc82 b3bd
000002d0: f9b9 bd3c a668 b0bd a0bf 52bd e326 7cbc
000002e0: 2096 85be b68f 7ebe 92fa 2bbc 292f 663c
000002f0: d7d5 4fbd ce19 10bd cc73 0cbf 6c8d 75be
00000300: 5a0b 8abd b360 ecbc 6a23 b9be 8516 f1bd
00000310: 966e 2bbe 8904 ab3e 74c5 71bf 8a19 05bf
00000320: 9d52 5dbc 76b3 68bc 275b 1dbe 1221 95be
00000330: 6d57 c23d 2c92 cabc d9d4 f43d 8bcb ed3c
00000340: d1ab 10bd 4226 edbd 556e 2ebf 5967 0bbf
00000350: 88ed 9fbd 6359 8d3d f4e5 1bbe 4788 d3bd
00000360: 911b b9bd c9f5 ffbd 4cbe 94bc 7440 103c
00000370: 0b7b 29bd 74f9 25be a671 e3be f9c6 4bbe
00000380: 7f8a 0cbf 0a8c 2fbe 4e17 92bd 5b26 e7bd
00000390: e487 c93d 475e bdbd 8412 aa3d 20d4 17bf
000003a0: 0006 34bd 3c91 463d 6a06 d93e c188 ebbe
000003b0: 2dd6 edbb 331b 1e3c 2667 54be 9e4e 8c3d
000003c0: 89b3 a3be 5ed7 86be c70f 5ebf fe04 263d
000003d0: 7672 9a3c 113f 79be e935 01bd 2934 43be
000003e0: e5db 10be 6edf c0be d43d 7a3d 6a67 d93b
000003f0: ae41 0ebd abc3 33bf 1830 fdbe 25ea 23be

mlp.0.bias f4 [128]
0.42271316 0.3418424 -0.09647747 0.16098128 -0.05757974 0.21529149 0.39591673 0.21650901
-0.06984099 -0.046071555 0.36898354 -0.046691455 -0.045548055 0.28772748 0.3732709 -0.044567104
0.3289235 0.16578819 -0.027926875 0.3579548 -0.06375914 0.2669473 0.2863306 0.30187953
0.35182673 -0.07326455 0.1381981 -0.06436771 0.25431585 0.325803 -0.059170663 0.102062866
-0.087244295 0.46440232 -0.02783094 0.28595743 0.21613844 0.2800536 0.3698785 0.1942274
0.38027468 0.15766744 0.40684518 0.4642948 -0.0038202135 -0.037731644 -0.043170597 0.15723771
0.056600638 -0.051558297 0.38961682 -0.054992955 0.32541862 0.1802622 0.27838942 0.31717643
0.2718844 0.22614044 -0.28559774 0.18390661 0.31369925 0.25403413 -0.05232348 0.28769836
-0.043328397 0.36048445 0.39501336 -0.064628445 0.44281322 0.26821318 0.17481202 0.26734987
-0.06991204 -0.05646059 0.30100274 0.24626897 -0.04350783 0.27534127 -0.024295935 0.23211329
0.3825656 -0.055265628 0.2622473 0.36224335 -0.04622129 -0.05941395 0.12245226 -0.008213808
-0.03659553 -0.0679286 -0.04330393 -0.11199328 0.3040745 0.05429627 0.25298953 0.27192813
0.29843792 0.25126946 0.3220065 -0.06379147 0.25638178 -0.087779544 0.28879458 -0.039075684
-0.06921168 0.08329561 0.32146224 0.24872884 0.16703488 -0.08532788 0.29298112 0.30596378
-0.080989 0.371427 -0.037274543 0.3747326 0.28825784 0.39218596 0.2344464 0.31281933
0.27654785 0.21352284 0.23091069 0.31663916 -0.04193376 0.30265912 -0.04831912 0.1542931
00000000: dc6d d83e f805 af3e fb95 c5bd 47d8 243e
00000010: bcd8 6bbd 5f75 5c3e 99b5 ca3e 8ab4 5d3e
00000020: cb08 8fbd 87b5 3cbd 69eb bc3e 8a3f 3fbd
00000030: 9990 3abd 0451 933e 5d1d bf3e ff8b 36bd
00000040: a968 a83e 61c4 293e e7c6 e4bc da45 b73e
00000050: 2794 82bd 51ad 883e ed99 923e f48f 9a3e
00000060: a222 b43e b90b 96bd cd83 0d3e 38d3 83bd
00000070: b035 823e a7cf a63e f05c 72bd 5606 d13d
00000080: 23ad b2bd 24c6 ed3e b6fd e3bc 0369 923e
00000090: 6553 5d3e 2f63 8f3e b760 bd3e 8ce3 463e
000000a0: 5db3 c23e 9373 213e 034e d03e 0cb8 ed3e
000000b0: 8c5c 7abb 7f8c 1abd a7d3 30bd ec02 213e
000000c0: 12d6 673d cb2e 53bd db7b c73e 4b40 61bd
000000d0: 459d a63e a796 383e 0f89 8e3e f364 a23e
000000e0: 6f34 8b3e 5c91 673e de39 92be 0452 3c3e
000000f0: 309d a03e c310 823e 2551 56bd 334d 933e
00000100: 1e79 31bd 6b91 b83e 313f ca3e eb5b 84bd
00000110: 6ab8 e23e 3d53 893e ec01 333e 15e2 883e
00000120: 0b2e 8fbd 3843 67bd 081d 9a3e ef2d 7c3e
00000130: 4435 32bd 88f9 8c3e 4508 c7bc 1baf 6d3e
00000140: a3df c33e 365e 62bd 4745 863e f677 b93e
00000150: 8952 3dbd 0b5c 73bd 40c8 fa3d 3593 06bc
00000160: 32e5 15bd 261e 8bbd 765f 31bd bc5c e5bd
00000170: a7af 9b3e c465 5e3d d887 813e 2a3a 8b3e
00000180: dbcc 983e 64a6 803e 09de a43e 1aa5 82bd
00000190: 7944 833e c3c5 b3bd e2dc 933e d30d 20bd
000001a0: dabe 8dbd e496 aa3d b396 a43e c6b2 7e3e
000001b0: 310b 2b3e 62c0 aebd 9f01 963e 49a7 9c3e
000001c0: 90dd a5bd ae2b be3e 31ad 18bd f4dc bf3e
000001d0: 8896 933e 99cc c83e b812 703e db29 a03e
000001e0: ae97 8d3e bba5 5a3e da73 6c3e 871e a23e
000001f0: bcc2 2bbd 23f6 9a3e 45ea 45bd 03ff 1d3e

mlp.3.weight f4 [64, 128]
-0.26547134 -0.15315185 0.011259216 0.017557176 0.092004016 -0.35661238 0.02514945 -2.8474352
-0.084387206 0.00726555 0.16869551 -0.06743547 -0.018353505 -0.49917904 0.03504369 -0.07780732
0.3050493 -0.21819822 -0.04438549 0.37829295 -0.01313827 -0.49327213 -0.3071741 -1.497542
-0.17901218 -0.04839486 -0.03477059 0.04299622 -1.6099622 -0.43996036 -0.052364726 -0.14675549
-0.06594426 0.07773506 -0.046564713 0.012173295 -0.5927003 -0.118029125 -0.09985572 -0.2105118
0.058275715 -0.43170267 -0.17278871 0.12284932 -0.021125918 -0.07116193 0.02942777 -0.028541751
0.076644875 0.037836943 0.008968981 0.0402759 -0.33113483 0.42796975 -0.012865654 -0.041208602
-0.17547363 -0.82399994 -0.2580889 -0.28879648 -2.5626652 -1.3694092 -0.04558734 -0.20022944
0.0659404 0.0022687444 -0.012418288 0.07430845 -0.10412211 0.061701424 -0.012389041 -0.10205988
0.011477545 0.038413405 -0.08087706 -0.5748102 -0.08727482 -0.2380622 -0.0011962638 -0.56665426
0.084454075 -0.035079837 -0.29035717 0.040543538 -0.047809467 0.009690815 0.013107778 -0.0035227984
0.008124462 -0.061824273 0.072625965 0.06320162 0.05517027 -1.0350301 -0.1544307 -0.04835444
-0.58193564 -0.23662503 -0.9164338 -0.08335936 -0.012322799 0.1096353 0.0012213303 0.0051475526
-0.06386462 -1.7462865 -0.1706363 -0.41624662 0.05685695 0.041198995 0.013148063 -0.1394504
-0.12071289 -0.029936371 -0.0029744534 -0.41767526 -0.10807706 -0.0040065646 -0.381775 -0.19521855
-0.36202976 -0.5408802 -0.93756294 -0.18784067 0.063978255 -0.11610726 -0.0079237325 -0.26606232
-0.015649866 -0.052418325 -0.02539721 -0.11893066 -0.056565378 0.02802312 -0.07101253 -0.0597843
-0.07056962 -0.07178701 -0.043804552 -0.069583505 -0.028730296 -0.115672395 -0.07289323 -0.07015264
-0.0719345 -0.11522134 0.046737812 -0.09049418 0.0509867 -0.1327072 -0.1430606 0.012222456
0.03385783 -0.068427324 0.053872757 0.052566014 0.024047727 -0.011757821 -0.031859044 0.07151571
-0.06170267 -0.093804024 -0.005750507 -0.03235069 0.059736952 -0.11867792 0.021416044 -0.042876646
-0.117992125 -0.1582574 0.026053965 -0.014506581 -0.075996995 -0.061058044 -0.039923243 -0.09486745
0.023424117 0.076063804 -0.18078855 -0.028477687 0.016809834 0.027258562 -0.08688994 0.057372984
-0.04941894 0.023119858 0.052704014 0.029653773 -0.10954462 -0.047265913 -0.060872134 0.0111236
0.030704789 -0.13107346 0.043270733 0.015098549 0.008630612 -0.12723294 -0.04486756 0.0065192827
0.03303958 0.04848171 -0.015278035 -0.05731138 0.043870326 -0.029427605 -0.07246551 0.013040491
-0.067751154 -0.04599179 -0.066402815 -0.019764949 0.008230858 0.013118863 -0.021740044 -0.017895833
-0.047087513 -0.087884694 -0.034788504 0.0311127 -0.06936024 -0.047500283 -0.051277816 -0.059537526
-0.102854066 -0.041626815 0.061478417 0.079341255 0.015012065 -0.07403599 -0.09482649 -0.047889713
0.042932298 -0.0066163465 -0.042576063 -0.0567344 -0.025567047 -0.051004965 -0.06873626 -0.08904926
0.03252393 -0.083047606 -0.070252314 -0.01092554 0.056262933 -0.0132631855 0.0036408429 -0.052620165
0.0040590474 0.051274315 -0.051307984 -0.0054286714 0.062086143 -0.08262284 0.03900408 -0.06449936
00000000: dceb 87be d7d3 1cbe 9378 383c 11d4 8f3c
00000010: 9a6c bc3d e695 b6be 3806 ce3c 613c 36c0
00000020: 33d3 acbd da13 ee3b 84be 2c3e 9c1b 8abd
00000030: 175a 96bc 6594 ffbe f989 0f3d 7259 9fbd
00000040: 6c2f 9c3e 5b6f 5fbe 8fcd 35bd 9daf c13e
00000050: e641 57bc 2a8e fcbe ec45 9dbe 75af bfbf
00000060: f84e 37be b039 46bd 9b6b 0ebd ce1c 303d
00000070: 3e13 cebf 7c42 e1be 657c 56bd 1247 16be
00000080: c90d 87bd 8f33 9f3d a4ba 3ebd 8072 473c
00000090: 35bb 17bf 41b9 f1bd 2881 ccbd 6890 57be
000000a0: 84b2 6e3d 2208 ddbe 86ef 30be 6d98 fb3d
000000b0: 4310 adbc 59bd 91bd 8212 f13c 64d0 e9bc
000000c0: fdf7 9c3d e9fa 1a3d a2f2 123c 58f8 243d
000000d0: 818a a9be da1e db3e 77ca 52bc 5aca 28bd
000000e0: 5caf 33be a9f1 52bf 3a24 84be 22dd 93be
000000f0: b502 24c0 cd48 afbf cab9 3abd f208 4dbe
00000100: c30b 873d 37af 143b 1376 4bbc 072f 983d
00000110: f93d d5bd a2ba 7c3d 67fb 4abc c504 d1bd
00000120: 500c 3c3c 6057 1d3d dfa2 a5bd c326 13bf
00000130: 24bd b2bd 94c6 73be f4cb 9cba 4110 11bf
00000140: 42f6 ac3d e0af 0fbd b2a9 94be fb10 263d
00000150: dcd3 43bd 39c6 1e3c 01c2 563c c0de 66bb
00000160: 771c 053c 733b 7dbd ecbc 943d da6f 813d
00000170: 39fa 613d de7b 84bf 1523 1ebe 4e0f 46bd
00000180: bcf9 14bf d54d 72be 689b 6abf 50b8 aabd
00000190: 91e5 49bc 7988 e03d 0b15 a03a cdac a83b
000001a0: 74cb 82bd 5186 dfbf 48bb 2ebe 471e d5be
000001b0: d5e2 683d 47c0 283d f96a 573c 16cc 0ebe
000001c0: 5238 f7bd 1f3d f5bc 0cef 42bb 88d9 d5be
000001d0: 8157 ddbd 8049 83bb 0378 c3be 5fe7 47be
000001e0: f75b b9be 2077 0abf 2004 70bf 4e59 40be
000001f0: 0807 833d a5c9 edbd 8bd2 01bc 5239 88be
00000200: 2634 80bc 99b4 56bd cf0d d0bc eb91 f3bd
00000210: 19b1 67bd be90 e53c 046f 91bd 62e0 74bd
00000220: ce86 90bd 1105 93bd 676c 33bd cc81 8ebd
00000230: cc5b ebbc a6e5 ecbd 0c49 95bd 30ac 8fbd
00000240: 6552 93bd 2af9 ebbd 2670 3f3d 0355 b9bd
00000250: 6ed7 503d 65e4 07be 7a7e 12be b240 483c
00000260: 82ae 0a3d a023 8cbd aea9 5c3d 764f 573d
00000270: bdff c43c e0a3 40bc a17e 02bd d476 923d
00000280: f0bb 7cbd 531c c0bd c06e bcbb 2882 04bd
00000290: bcae 743d 690d f3bd b370 af3c 6c9f 2fbd
000002a0: dba5 f1bd 3a0e 22be 206f d53c 03ad 6dbc
000002b0: 50a4 9bbd 0018 7abd 8e86 23bd de49 c2bd
000002c0: efe3 bf3c 57c7 9b3d a220 39be 0a4a e9bc
000002d0: c7b4 893c 594d df3c 5af3 b1bd efff 6a3d
000002e0: 846b 4abd db65 bd3c 2ae0 573d 78ec f23c
000002f0: ee58 e0bd e799 41bd 0f55 79bd c33f 363c
00000300: 9c88 fb3c 1f38 06be a73c 313d e85f 773c
00000310: 6967 0d3c 5a49 02be 0cc7 37bd b59f d53b
00000320: 8354 073d c294 463d b950 7abc 56bf 6abd
00000330: 5fb1 333d 2912 f1bc cc68 94bd c9a7 553c
00000340: 1ec1 8abd e361 3cbd 33fe 87bd 1aea a1bc
00000350: b8da 063c 80f0 563c 2d18 b2bc 489a 92bc
00000360: d6de 40bd e4fc b3bd 647e 0ebd 10e0 fe3c
00000370: be0c 8ebd a88f 42bd b008 52bd 9fdd 73bd
00000380: 27a5 d2bd e180 2abd cbd0 7b3d ab7d a23d
00000390: 2af5 753c 2ea0 97bd 6434 c2bd 0128 44bd
000003a0: c7d9 2f3d f0cd d8bb 3d64 2ebd 5562 68bd
000003b0: fc71 d1bc 95ea 50bd 99c5 8cbd 755f b6bd
000003c0: d037 053d dd14 aabd 72e0 8fbd 0901 33bc
000003d0: f673 663d d54d 59bc 359b 6e3b 3e88 57bd
000003e0: c201 853b 0405 523d 5228 52bd ffe2 b1bb
000003f0: 0a4e 7e3d 2a36 a9bd bec2 1f3d 3e18 84bd

mlp.3.bias f4 [64]
1.4573385 -0.1682021 2.6360483 2.289442 1.1436484 2.364216 2.6296868 1.3762305
2.2786741 2.7622137 2.1470602 0.9638088 2.3582277 2.5781 2.2855964 0.54921615
2.2849984 2.4533489 1.2773159 2.5530381 2.2534168 1.7570376 2.7150505 2.2978384
-0.1441802 1.0540202 2.705596 1.1916345 -0.2263632 0.64736503 2.5283608 1.2565135
-0.12729377 2.0465765 2.5379846 0.668112 2.3897605 2.1847475 2.6071134 1.4248333
2.6250777 1.2437874 2.313092 1.329606 2.6713293 0.39731604 1.3364083 2.6425755
2.6082048 1.0322812 2.4914012 2.6811216 1.2438297 1.0394593 1.8168929 2.3482702
2.1491573 2.6491168 1.1303071 2.222791 1.5866414 2.6329432 1.229925 2.1787655
00000000: 118a ba3f 2c3d 2cbe 04b5 2840 3886 1240
00000010: 1263 923f 514f 1740 ca4c 2840 5228 b03f
00000020: ccd5 1140 1cc8 3040 6f69 0940 2cbc 763f
00000030: 34ed 1640 97ff 2440 3647 1240 6e99 0c3f
00000040: 6a3d 1240 ab03 1d40 167f a33f fa64 2340
00000050: fb37 1040 9ce6 e03f 63c3 2d40 c90f 1340
00000060: f9a3 13be 22ea 863f 7c28 2d40 7b87 983f
00000070: c1cb 67be b7b9 253f aad0 2140 6fd5 a03f
00000080: 4c59 02be 1cfb 0240 576e 2240 6309 2b3f
00000090: d6f1 1840 e7d2 0b40 f2da 2640 f060 b63f
000000a0: 4601 2840 6d34 9f3f b309 1440 8830 aa3f
000000b0: 0ff7 2a40 026d cb3e 6d0f ab3f f51f 2940
000000c0: d4ec 2640 ca21 843f 1e73 1f40 7f97 2b40
000000d0: d035 9f3f 010d 853f f28f e83f 0f4a 1640
000000e0: cb8b 0940 218b 2940 e7ad 903f 3542 0e40
000000f0: 1117 cb3f 2482 2840 2f6e 9d3f e570 0b40
