unified_stgcn_best.pth (torch, 866457 bytes, 112 tensors)

input_conv.weight f4 [64, 4, 1, 1]
0	0x3f240d5d	0.6408289
1	0x40005bc3	2.0056007
2	0x3df62c1f	0.12020134
3	0x3ecb37d2	0.39691025
4	0xbcddc14a	-0.027069706
5	0xb6718933	-3.599166e-06
6	0xbcda3f08	-0.026641384
7	0xbcf5ba03	-0.029995924
8	0x3f393a45	0.7235454
9	0xbfcfc558	-1.62321
10	0x3f3bfe3f	0.73434824
11	0x3d919ead	0.07110343
12	0x3f1aefdc	0.60522246
13	0xbf1ed85a	-0.62048876
14	0x3ef4a220	0.47779942
15	0xbd4e0534	-0.05029793
16	0x3f269585	0.650719
17	0x3fe08363	1.7540096
18	0x3ca14c0f	0.019689588
19	0x3da9360c	0.08262262
20	0xbcf1ef24	-0.029532976
21	0xafddd700	-4.0352433e-10
22	0xbcf1ece5	-0.029531905
23	0x3cb00546	0.02148689
24	0xbe1129fa	-0.14176169
25	0xc0017557	-2.0227869
26	0x3e052838	0.13003623
27	0xbe98918e	-0.2979855
28	0x3e0b72e2	0.13618043
29	0xbf8e4877	-1.1115865
30	0x3f0b338e	0.5437554
31	0xbed5824c	-0.4170097
32	0x3f23c459	0.6397148
33	0x3fb85340	1.4400406
34	0x3da854f3	0.08219328
35	0x3e6c0e1a	0.23052254
36	0x3eafef39	0.343622
37	0x400d6abf	2.2096403
38	0x3e9d476a	0.30718547
39	0xbdee12d9	-0.11624689
40	0x3ec39776	0.38201493
41	0x3f73e683	0.9527361
42	0x3ee3b523	0.44474134
43	0x3ec86d28	0.3914578
44	0x3f16a0b6	0.58838975
45	0xbf8d08de	-1.1018331
46	0x3f193ce2	0.59858525
47	0x3d662785	0.056190033
48	0x3de34ddc	0.11098835
49	0xbfc99a51	-1.5750219
50	0xbf2d1f1e	-0.67625606
51	0xbe2a8ba4	-0.16654831
52	0xbcece621	-0.028918328
53	0xbc2e7998	-0.010649107
54	0xbcf36f73	-0.029716229
55	0xbce9d737	-0.028545005
56	0x3eef2f4c	0.46715772
57	0x3fdbaad2	1.7161505
58	0x3f2da2c1	0.6782647
59	0xbe94be1b	-0.2905129
60	0xbd1c83ba	-0.03821156
61	0x3b1dd30c	0.0024082093
62	0xbd1d96ca	-0.03847388
63	0x3cbdfad7	0.023190899
64	0x3ec556ff	0.38542935
65	0xbf69bb5f	-0.9130153
66	0x3f26fa25	0.6522544
67	0xbe367aee	-0.17820331
68	0xbca84e15	-0.020545045
69	0xbffc050e	-1.9689043
70	0x3f3f1293	0.74637717
71	0x3ded8e07	0.11599355
72	0x3f3cf061	0.7380429
73	0x3e9d7819	0.3075569
74	0xbe7865b1	-0.24257542
75	0xbe9edcf6	-0.31027955
76	0xbe388e22	-0.1802297
77	0x3f62e1bb	0.8862569
78	0x3ea5c7ab	0.32378897
79	0x3effe676	0.49980515
80	0xbce0a82e	-0.027423944
81	0x8309d981	-4.0510364e-37
82	0xbcdfdea8	-0.02732785
83	0x3cf22640	0.029559255
84	0x3f038acf	0.5138368
85	0x3fb18589	1.3868877
86	0x3eeb3893	0.459416
87	0xbe87760d	-0.26457253
88	0xbd84f20b	-0.064914785
89	0xbf7ef6e6	-0.9959549
90	0x3e9d64e2	0.3074103
91	0xbd2956a0	-0.041342378
92	0xbcf48c2b	-0.029851994
93	0x810d42d7	-2.5945565e-38
94	0xbcf50337	-0.02990876
95	0xbcdfe6a5	-0.02733166
96	0x3f124ac1	0.57145315
97	0x3faebd6f	1.365156
98	0xbdb53baa	-0.08849271
99	0xbf0abc91	-0.5419398
100	0xbebd36ee	-0.3695597
101	0xbf8e1444	-1.1099935
102	0xbe05c7af	-0.13064454
103	0xbeeab745	-0.4584295
104	0xbe0fc756	-0.14040884
105	0xbfd53682	-1.665726
106	0xbf0c85cb	-0.5489165
107	0xbe7359da	-0.23764744
108	0xb44b6501	-1.8942593e-07
109	0x80cc0566	-1.8736378e-38
110	0x342c287a	1.6033474e-07
111	0xb472bf1c	-2.2607531e-07
112	0x9ebf97b6	-2.0285658e-20
113	0x818e641b	-5.2306206e-38
114	0xa647b34d	-6.928499e-16
115	0x82852803	-1.956556e-37
116	0x3ed1ab43	0.40950975
117	0xbfc45cfb	-1.5340875
118	0x3e0ab0b0	0.13543963
119	0xbed16006	-0.40893573
120	0xbcf95ce9	-0.03043981
121	0xae0f0ad2	-3.2524046e-11
122	0xbcf92253	-0.030411875
123	0x3cfbc5fa	0.030734051
124	0xbd864e0c	-0.06557855
125	0xc00086a8	-2.0082188
126	0x3e0b553b	0.13606732
127	0xbebef843	-0.37298784
128	0x3f307b46	0.689381
129	0x3f36e115	0.714372
130	0x3f2e8241	0.681675
131	0x3df1212a	0.11773904
132	0xbf0814fd	-0.53157026
133	0xbf7beff5	-0.9841302
134	0xbe651138	-0.2236985
135	0xbe725708	-0.23666012
136	0xbdcfe9c4	-0.10152009
137	0x8b216627	-3.1084323e-32
138	0x3cd79912	0.026318107
139	0xbd8fd215	-0.07022492
140	0x3e11b44a	0.14228931
141	0x3f906c5a	1.1283066
142	0x3e96784f	0.29388663
143	0xbebf8c31	-0.37411645
144	0xbde9236b	-0.113837086
145	0x39e6572a	0.0004393396
146	0x3e6888eb	0.2270848
147	0x3ebd8959	0.3701885
148	0x3f31ed60	0.6950283
149	0xbfaa248e	-1.3292406
150	0x3eba75dc	0.36418045
151	0xbe19cdfb	-0.15019982
152	0x3e4eac08	0.20182812
153	0xbe56a184	-0.20960051
154	0x3f340ed2	0.70335114
155	0xbe8e9f76	-0.27856034
156	0x3ec230fa	0.3792799
157	0x3fa4c0ed	1.2871376
158	0x3e846fba	0.2586649
159	0xbe873738	-0.26409316
160	0x3f2f9874	0.68592
161	0x3f9f0a76	1.2425067
162	0x3e9541df	0.29151818
163	0xbf01d26e	-0.50711715
164	0x3eed90f6	0.4639966
165	0x3ecd29f0	0.40071058
166	0x3bd7fb65	0.006591248
167	0x3f01c951	0.5069781
168	0x813c68d2	-3.4605351e-38
169	0x00b17776	1.6297737e-38
170	0x0110da31	2.6605168e-38
171	0x8136ea8c	-3.35964e-38
172	0x3ef43532	0.47696835
173	0x3fb75ac6	1.4324577
174	0xbe0d9087	-0.13824664
175	0xbe85cf90	-0.2613492
176	0xbe040443	-0.1289225
177	0x3fdf69c5	1.7454153
178	0x3f200f20	0.6252308
179	0xbf19f3aa	-0.60137427
180	0x3ea65795	0.32488695
181	0x4007e974	2.1236238
182	0x3e86c542	0.2632237
183	0xbe4867e3	-0.1957088
184	0x3ef83ba0	0.4848299
185	0x3fde868e	1.7384813
186	0x3ec5fbc8	0.38668656
187	0xbcadf968	-0.02123709
188	0xbd295100	-0.041337013
189	0x3c662bf7	0.014048568
190	0xbd2b38a5	-0.041802067
191	0xbba6ed50	-0.005094208
192	0xbd4caf5e	-0.04997193
193	0xbae28286	-0.0017281331
194	0xbd4ea319	-0.05044851
195	0xbbe3f83a	-0.006957081
196	0x3e8272e9	0.25478294
197	0xbebfcf8c	-0.37463033
198	0x3ec4ac6f	0.38412806
199	0x3db0fe55	0.0864226
200	0xbdf3c281	-0.11902333
201	0xc005d0fc	-2.0908804
202	0x3e1059be	0.14096734
203	0xbb74495f	-0.0037275178
204	0x3e4b684f	0.1986401
205	0xbff5270f	-1.9152545
206	0xbd90a7db	-0.07063266
207	0xbf1b68a3	-0.6070654
208	0x3df6e848	0.12056023
209	0x3fd6f749	1.6794215
210	0x3f1302a1	0.57425886
211	0x3e7b11fe	0.24518582
212	0xbe974457	-0.29544327
213	0xbf4129a9	-0.75454193
214	0x3d5c0e3d	0.053724516
215	0x3f0b461f	0.5440387
216	0x3ea079b1	0.31342843
217	0xbfd39f85	-1.6533056
218	0x3ef10d82	0.47080618
219	0xbe31a60d	-0.173485
220	0xbee4598c	-0.4459957
221	0xbfc6777a	-1.5505211
222	0xbeb0c4b8	-0.34525084
223	0xbb16ff82	-0.0023040478
224	0xbc97b97e	-0.018521067
225	0x3caf9513	0.021433389
226	0xbc92a0a1	-0.01789886
227	0xbcb663ec	-0.022264443
228	0xbed778a4	-0.4208423
229	0xbef94099	-0.48682097
230	0xbef1321e	-0.4710855
231	0x3e98af4c	0.2982124
232	0x3f08a8a7	0.53382343
233	0x400a901c	2.1650457
234	0x3f0bdf1d	0.5463732
235	0x3dc30dc5	0.09524111
236	0x3e18eaf4	0.14933378
237	0xbfc14204	-1.5098271
238	0xbe86e95d	-0.26349917
239	0xbf0d3ed0	-0.5517397
240	0x3ee55b82	0.44796377
241	0x3f7855d8	0.9700599
242	0x3e0aa255	0.13538487
243	0xbe2a7054	-0.16644412
244	0x3e1a0342	0.15040305
245	0xc0038852	-2.0551953
246	0xbd7edd77	-0.062222924
247	0x3e16947d	0.14705081
248	0xbe35bfdc	-0.1774897
249	0xbee568ad	-0.44806424
250	0xbe3a490d	-0.18191929
251	0xbecccafc	-0.39998615
252	0x3dd68955	0.10475413
253	0xbe7d7df7	-0.24755083
254	0x3d586dcc	0.052839085
255	0xbf1b91ef	-0.6076955

input_conv.bias f4 [64]
0	0x3efa2032	0.48852688
1	0xbcf13d53	-0.029448187
2	0x3ee33500	0.44376373
3	0x3ec79f31	0.3898864
4	0x3f122a3d	0.570957
5	0xbcf9138f	-0.030404834
6	0x3f16ac57	0.5885672
7	0xbe4ff514	-0.20308334
8	0x3ec693ea	0.38784724
9	0x3f3148f3	0.69251937
10	0x3dcf2ed1	0.101163514
11	0x3d846930	0.064653754
12	0x3dc49e06	0.09600453
13	0xbd63362d	-0.055471588
14	0x3eebc2d2	0.46047074
15	0xbd4d4afd	-0.050120343
16	0x3ef385fc	0.4756316
17	0x3f19fdd6	0.6015295
18	0x3f34e4ed	0.70661813
19	0xbcad2683	-0.021136528
20	0xbced2e9f	-0.028952895
21	0x3e106022	0.14099172
22	0x3e9f750a	0.3114398
23	0xbcfd2b7f	-0.03090453
24	0xbd33d92a	-0.043908276
25	0xbe3551a0	-0.17706919
26	0x3da7f40b	0.082008444
27	0xb573f019	-9.087394e-07
28	0xb5ba4f04	-1.3881076e-06
29	0x3d84ccba	0.06484361
30	0xbcfe03b3	-0.031007623
31	0x3f2a99b6	0.66640794
32	0x3f236de9	0.63839585
33	0x3e1abae4	0.15110356
34	0xbd8c515e	-0.06851457
35	0xbe6b58ce	-0.22983095
36	0xbef4c16e	-0.47803825
37	0xbe9e35e3	-0.30900487
38	0x3eb0c183	0.34522638
39	0xbe558992	-0.2085326
40	0xbe4df6dc	-0.201137
41	0x3dab0380	0.08350277
42	0x81651f99	-4.2083327e-38
43	0xbcba823d	-0.02276718
44	0x3e620ece	0.2207596
45	0x3d06d03f	0.032913443
46	0xbe488732	-0.19582823
47	0xbd1d89ef	-0.03846162
48	0xbd50533c	-0.05086063
49	0x3f206b8a	0.6266409
50	0x3cb8eefb	0.022574892
51	0x3e9de52e	0.30838913
52	0x3c3f0eb7	0.011661223
53	0x3e0b8755	0.13625844
54	0x3f2d94b6	0.6780504
55	0x3ebb10da	0.36536294
56	0xbd10eeb4	-0.035383895
57	0x3e854195	0.26026598
58	0x3f2612e8	0.648726
59	0x3e673925	0.22580393
60	0x3f0670d9	0.5251594
61	0x3f1fc34e	0.62407386
62	0xbda0de49	-0.078548975
63	0x3e796e08	0.2435838

st_blocks.0.spatial_weight f4 [64, 64]
0	0xbe3d3d60	-0.18480444
1	0xbd8d4c60	-0.06899333
2	0x3d96a4af	0.0735563
3	0xbdc94078	-0.098267496
4	0x3d8533ae	0.06503998
5	0x3cad2cd0	0.021139532
6	0xbe39f3d8	-0.18159425
7	0xbdcf22f1	-0.101140864
8	0xbe440f35	-0.19146426
9	0x3e51b757	0.20480095
10	0xbd3276ee	-0.04357045
11	0xbe2782e5	-0.16358526
12	0x3d74ac65	0.05973472
13	0x3de3d44b	0.11124476
14	0xbe075638	-0.13216484
15	0xbddee0c3	-0.10882714
16	0x3e56d68f	0.20980285
17	0xbced488b	-0.028965255
18	0x3d2430e0	0.040085673
19	0xbe2605bd	-0.16213126
20	0xbe624134	-0.22095186
21	0xbe11ed7f	-0.14250754
22	0x3e3b7ad9	0.18308581
23	0x3e01ccc7	0.12675773
24	0x3e07578e	0.13216993
25	0x3d59ac61	0.05314291
26	0x3e0d3d97	0.13793026
27	0x3dc135c1	0.09434081
28	0x3e5e218b	0.21692483
29	0x3e4822ae	0.19544479
30	0x3c95065f	0.018191515
31	0x3d475305	0.048663158
32	0x3e0aa01b	0.13537638
33	0xbe04cc10	-0.12968469
34	0x3d9edb41	0.07756663
35	0x3d977f8b	0.07397374
36	0x3dea2198	0.11432189
37	0xbdc5cb91	-0.09657968
38	0x3e29f26d	0.16596384
39	0x3dbe9833	0.093063734
40	0xbcf15467	-0.029459191
41	0xbd320c2c	-0.04346864
42	0xbd810a4c	-0.06300792
43	0x3ab2a3b5	0.0013629111
44	0x3e8527af	0.2600684
45	0x3dade385	0.084906615
46	0xbd5809ec	-0.052743837
47	0x3dcb7fd1	0.099364884
48	0x3d2dcab2	0.042429633
49	0xbe1721f9	-0.14759053
50	0xbddecde5	-0.10879115
51	0x3e2728e6	0.16324195
52	0x3dc42ff8	0.09579462
53	0x3d8977a1	0.067122705
54	0xbdabdc5a	-0.08391638
55	0xbe284749	-0.16433443
56	0x3e0d7f40	0.13818073
57	0x3df36bcf	0.11885797
58	0xbe82399b	-0.25434574
59	0xbe613158	-0.2199148
60	0xbc3f0cf1	-0.0116608
61	0x3e47450d	0.19459935
62	0xbe536540	-0.20644093
63	0x3e7a3fbb	0.24438374
64	0x3e8b61d7	0.27223083
65	0xbe10841c	-0.14112896
66	0x3def9500	0.11698341
67	0x3dae4801	0.085098274
68	0x3e3c6f19	0.18401755
69	0x3de0a271	0.10968483
70	0x3e19511b	0.14972346
71	0xbe2e169d	-0.17000814
72	0x3d4014b5	0.046894748
73	0x3ca2133c	0.019784562
74	0x3de63a17	0.112415485
75	0x3de0ff26	0.10986166
76	0x3dfefa5b	0.12450095
77	0x3dc37514	0.09543815
78	0xbd29172a	-0.041281857
79	0x3e32a3d3	0.17445306
80	0x3e0b977a	0.13632002
81	0x3e55481d	0.2082829
82	0x3e6e89bd	0.2329473
83	0x3da06707	0.07832151
84	0x3e3ce453	0.18446474
85	0x3d0705d0	0.032964528
86	0x3d80bf63	0.06286504
87	0xbe50e4d8	-0.20399797
88	0x3db9ecc2	0.09078361
89	0x3d6afb18	0.057368368
90	0x3dfebf00	0.12438774
91	0x3e3ec3a1	0.18629314
92	0x3ca3e20d	0.02000525
93	0x3c75a4fa	0.014992947
94	0xbdcc1edd	-0.09966824
95	0x3d147a34	0.036249354
96	0x3e19384f	0.14962886
97	0x3dda4959	0.10658521
98	0x3e82c728	0.2554257
99	0xbe8df1a0	-0.27723408
100	0xbd03fb89	-0.032222304
101	0x3e1119ef	0.14170049
102	0xbd817ca9	-0.06322605
103	0xbc3b3e97	-0.011428497
104	0x3d98927f	0.07449817
105	0xbd0e5143	-0.034745466
106	0x3e240afa	0.16019812
107	0x3a753d1b	0.0009355114
108	0x3e381e04	0.179802
109	0xbe75fb90	-0.24021745
110	0x3e4031dc	0.1876902
111	0xbd65673b	-0.05600665
112	0xbe29f660	-0.16597891
113	0x3cbdd7ad	0.023174131
114	0x3def9daf	0.11699998
115	0x3e76d385	0.24104126
116	0xbce3dd98	-0.027815625
117	0xbd0e9730	-0.034812152
118	0xbdd2dc7f	-0.102959625
119	0x3e523da6	0.2053133
120	0x3d7b5beb	0.061366957
121	0x3d0da454	0.034580544
122	0x3cd18b63	0.02557916
123	0x3d81fd5f	0.06347155
124	0x3e25bd44	0.1618548
125	0xbe1d4764	-0.15359265
126	0x3ce7489d	0.028232867
127	0x3e024306	0.1272088
128	0xbea91b75	-0.3302876
129	0x3de2be32	0.11071433
130	0xbdf2b638	-0.11851162
131	0xbcec384e	-0.028835442
132	0xbe93bc80	-0.28854752
133	0xbdee59dd	-0.11638234
134	0xbe6f7b4a	-0.23386875
135	0x3e2e9805	0.17050178
136	0xbe6aee6d	-0.22942515
137	0xbea269fa	-0.3172148
138	0xbe7a848b	-0.24464624
139	0xbd016dc7	-0.031598832
140	0xbc573ef8	-0.0131375715
141	0xbea20cd1	-0.31650403
142	0xbd9be890	-0.07612717
143	0x3e43fcf8	0.19139469
144	0xbe8e0b0e	-0.2774281
145	0xbd9d02a8	-0.07666522
146	0xbe27e466	-0.16395721
147	0xbdfcebca	-0.12349661
148	0xbc28ab00	-0.010294676
149	0xbe424f4f	-0.18975566
150	0xbd840e41	-0.06448031
151	0x3d408cd3	0.0470093
152	0xbe38408f	-0.17993377
153	0xbe0dab5b	-0.13834898
154	0x3d90fe02	0.07079698
155	0xbeaeabeb	-0.34115538
156	0x3e3fb276	0.18720421
157	0xbe52b4b4	-0.20576745
158	0x3d06a553	0.03287251
159	0x3d3b01d2	0.045656033
160	0xbd38caf2	-0.04511542
161	0xbe17d8d4	-0.14828807
162	0xbdcd6fec	-0.10031113
163	0xbe11b223	-0.1422811
164	0xbc360959	-0.011110627
165	0xbe841c6e	-0.2580294
166	0xbe2439e6	-0.16037712
167	0x3da43d9f	0.08019566
168	0xbe8e31d3	-0.27772388
169	0xbe6b6d5f	-0.2299094
170	0xbe8b39ef	-0.27192637
171	0xbe9ece11	-0.3101659
172	0x3d9b943d	0.075966336
173	0xbe12d97a	-0.14340773
174	0xbebd63e3	-0.3699027
175	0xbdc43ea7	-0.095822625
176	0xbdb576d9	-0.08860559
177	0xbde61fc7	-0.1123653
178	0xbe7c9e87	-0.24669848
179	0x3eb91251	0.36146787
180	0x3df43dfd	0.11925886
181	0xbe59cd47	-0.21269713
182	0xbe34255c	-0.17592376
183	0x3e21431f	0.15748261
184	0xbe091606	-0.13387308
185	0xbd199624	-0.0374967
186	0xbe40e22b	-0.18836276
187	0xbe48eefd	-0.19622417
188	0xbc8dcd51	-0.017309817
189	0xbea60057	-0.32422134
190	0x3eb4c965	0.35309902
191	0x3d306cd1	0.043072525
192	0x3de49f01	0.1116314
193	0x3db1fab8	0.08690399
194	0x3e7daa07	0.24771892
195	0x3bc6fe5b	0.006072802
196	0xbe12debb	-0.14342777
197	0xbdb8b22b	-0.09018358
198	0x3e1951c4	0.14972597
199	0x3c0d6959	0.008631074
200	0xbca8abc5	-0.020589719
201	0x3e289c04	0.16465765
202	0x3d4b47ce	0.049629025
203	0xbd5253fc	-0.051349625
204	0xbd9100b5	-0.07080213
205	0x3e01e476	0.12684807
206	0x3dae64b3	0.085153006
207	0xbe05ed89	-0.13078894
208	0x3e49ea57	0.197183
209	0x3def0ac5	0.11671976
210	0xbdfb5696	-0.12272374
211	0x3d6028b8	0.054726332
212	0xbe428d4b	-0.18999211
213	0xbdd1b8c9	-0.10240323
214	0xbca70f82	-0.020393137
215	0x3d8f5c6a	0.070000485
216	0xbc12cb2a	-0.008959571
217	0x3e2dfadc	0.16990227
218	0xbe0dcec6	-0.13848409
219	0x3e0da85c	0.13833755
220	0xbe2808e3	-0.1640964
221	0xbd38ec34	-0.045147136
222	0x3e1941a1	0.14966442
223	0xbd87b376	-0.06626026
224	0xbb979a39	-0.004626539
225	0x3d9d3cc8	0.07677609
226	0xbdb4e439	-0.088325925
227	0x3d468066	0.048462294
228	0xbd0dda4d	-0.034632016
229	0x3c3179f2	0.010832297
230	0xbe02c430	-0.12770152
231	0xbd0f3fc0	-0.034972906
232	0xbdde08bc	-0.1084151
233	0xbd353fea	-0.044250406
234	0x3e5979e3	0.21237902
235	0x3e361c00	0.17784119
236	0xbd831026	-0.063995644
237	0x3deb6505	0.11493877
238	0x3e3e613c	0.1859178
239	0x3e7676a0	0.2406869
240	0xbc8a25ed	-0.016863788
241	0x3dcce107	0.10003858
242	0x3e3c24c7	0.18373404
243	0x3e18b1f9	0.14911641
244	0x3d9a401c	0.07531759
245	0xbd4edf3a	-0.050505854
246	0x3e4a58c7	0.19760428
247	0xbdcaa500	-0.098947525
248	0x3dc54f54	0.09634271
249	0x3e365892	0.17807224
250	0x3dc60755	0.09669367
251	0xbe2cfc12	-0.16893032
252	0x3e91b703	0.2845994
253	0x3e0b996c	0.13632745
254	0x3c1b57c7	0.009481377
255	0x3d51bd5d	0.05120598

st_blocks.0.temporal_conv.weight f4 [64, 64, 1, 3]
0	0xbd2b9869	-0.041893397
1	0x3ce88644	0.028384335
2	0x3df2e772	0.11860551
3	0x8182e603	-4.808451e-38
4	0x80bb80bc	-1.7219419e-38
5	0x010629c4	2.4641878e-38
6	0xbd12c04a	-0.035827912
7	0xbcebb6ac	-0.028773628
8	0x3c12b7ed	0.008954984
9	0x3c665a10	0.0140595585
10	0x3dc72dde	0.09725545
11	0x3d83a14a	0.06427248
12	0xbd0bcdb4	-0.03413172
13	0x3da6ec5f	0.08150553
14	0x3e478b7b	0.19486801
15	0x0157dbcc	3.964696e-38
16	0x011205b0	2.6820045e-38
17	0x809bf97c	-1.4324e-38
18	0xbd9e78e6	-0.07737903
19	0xbd79aee6	-0.06095781
20	0xbdb3b02b	-0.08773836
21	0x3caf20f5	0.02137802
22	0xbc112e8d	-0.008861196
23	0xbd4c676e	-0.049903326
24	0xbd25807c	-0.040405735
25	0x3cf145c3	0.02945221
26	0x3e28b3b6	0.16474804
27	0xbc542be3	-0.0129499165
28	0xbbab9c3e	-0.0052371314
29	0x3d4e7625	0.05040564
30	0x3cc64f65	0.02420778
31	0x3d8a2eb8	0.06747192
32	0x3de69c1b	0.112602435
33	0x3d790995	0.060800154
34	0xbce0eac5	-0.027455697
35	0x3da08c3d	0.07839248
36	0x3d8a1c64	0.06743696
37	0x3e10480b	0.14089982
38	0x3d84394a	0.064562395
39	0xbc8f4330	-0.017488092
40	0xbc90b757	-0.017665548
41	0xbc8fade6	-0.017538976
42	0xbc6addac	-0.014335077
43	0x3d2a8421	0.041629914
44	0x3d709c10	0.058742583
45	0x3ba4f02e	0.0050335145
46	0x3bb7a78d	0.0056046904
47	0x3bd7ff74	0.0065917317
48	0xbca2cf5a	-0.019874264
49	0x3d17384a	0.036918916
50	0x3dbe8e65	0.09304503
51	0x3c91121f	0.017708836
52	0xbd8a1a2d	-0.06743274
53	0xbc93af8d	-0.018028045
54	0xbd574fb7	-0.052566256
55	0xbcce0dd7	-0.025153084
56	0xbab58459	-0.0013848647
57	0x3d082ab3	0.033243846
58	0x3d9b7d1e	0.075922236
59	0xbcf678f7	-0.030086977
60	0x01bff0d0	7.050787e-38
61	0x00230d80	3.219085e-39
62	0x01beb890	7.005981e-38
63	0x3dc798f8	0.09745973
64	0x3ce7d02f	0.028297512
65	0x3dac5089	0.08413798
66	0xbdb7ab10	-0.089681745
67	0xbd815070	-0.0631417
68	0xbbec84b8	-0.0072179697
69	0x814253bc	-3.569225e-38
70	0x019dcd32	5.796713e-38
71	0x0186a0ce	4.945457e-38
72	0x3d8a5d94	0.0675613
73	0x3d4ac3b2	0.049503036
74	0x3c42e517	0.01189544
75	0x3e11ce62	0.14238885
76	0x3dfc484a	0.123184755
77	0x3e3f1a7e	0.1866245
78	0x3df4c59d	0.11951754
79	0x3d827f7f	0.06371974
80	0x3da0d4aa	0.078530625
81	0x806be7a4	-9.909495e-39
82	0x8087187e	-1.2406578e-38
83	0x01042f44	2.4278482e-38
84	0x00ee7e48	2.1902149e-38
85	0x0175e3cc	4.516283e-38
86	0x806c1bea	-9.928247e-39
87	0xbcb39774	-0.021922804
88	0xbd21bf0a	-0.03948883
89	0x3ade426c	0.0016957051
90	0x01525abc	3.8636007e-38
91	0x80cc3fe8	-1.8757366e-38
92	0x00fc0368	2.3143767e-38
93	0xbb95c624	-0.0045707393
94	0x3c553c56	0.0130148735
95	0xbdce30a2	-0.1006787
96	0xbbbec780	-0.005822122
97	0x3dbd0808	0.092300475
98	0x3d41a370	0.047275007
99	0x3d8b941c	0.06815359
100	0x3de426fb	0.111402474
101	0x3db36f39	0.087614484
102	0x1f77d689	5.2481744e-20
103	0x1fa67d5b	7.051112e-20
104	0x1f98bb55	6.468442e-20
105	0x3d85edc9	0.065394945
106	0x3d2ae81d	0.041725267
107	0xbc2e375d	-0.010633317
108	0xbc5c6d50	-0.0134537965
109	0x3c8cdcf5	0.017195204
110	0x3ced1d29	0.028944569
111	0x3cc848c9	0.02444877
112	0x3b135db6	0.0022486276
113	0x3d8a8208	0.06763083
114	0xbd0928fd	-0.033486355
115	0x3d5858ed	0.05281918
116	0xbcd805c2	-0.026369933
117	0x3d811628	0.06303054
118	0x3d27b2c0	0.040941954
119	0x3d60f73d	0.054923285
120	0x3c024f4d	0.007953477
121	0x3d8b7a80	0.068104744
122	0x39abd2dd	0.00032772767
123	0x3d1cdd74	0.03829713
124	0x3daa5830	0.08317602
125	0x3a1b6191	0.0005927319
126	0x012044ff	2.943686e-38
127	0x000fcb80	1.450534e-39
128	0x816bee8a	-4.3333827e-38
129	0xbcc34786	-0.023837816
130	0x3dceea68	0.10103303
131	0xbd2ce8c5	-0.042214174
132	0xbd611c1c	-0.054958448
133	0xbb8ffa09	-0.00439382
134	0xbc7958d3	-0.015218931
135	0x3d44ac97	0.048016157
136	0x3b6d7699	0.003623402
137	0x3da73047	0.08163505
138	0x3d638270	0.055544317
139	0x3c016078	0.007896535
140	0x3d74d3d8	0.059772342
141	0xb99ebf24	-0.0003027852
142	0xb95e5055	-0.00021201496
143	0xb9382742	-0.00017562232
144	0xbb90d5ba	-0.0044200094
145	0xbb4d5694	-0.0031332122
146	0xbb2cdde8	-0.0026377384
147	0xbd3c004b	-0.045898717
148	0x3de72d1a	0.11287899
149	0x3e0c55cf	0.13704608
150	0xbf302d9a	-0.6881958
151	0xbf5005c4	-0.812588
152	0xbf5fd977	-0.874412
153	0xbc83eb2a	-0.016103346
154	0xbd5332dd	-0.05156218
155	0xbc3b6cb1	-0.011439488
156	0xbcea962b	-0.028636059
157	0xbc486408	-0.012230881
158	0x3d37aa93	0.044840407
159	0xbb0eee89	-0.0021809659
160	0x3d37d0d8	0.044876903
161	0x3b0fbecd	0.0021933794
162	0xbce29fb4	-0.027664043
163	0x3cf1a4b4	0.029497482
164	0xbd01f73d	-0.031729925
165	0x3d2ecdb6	0.04267665
166	0x3e1fe543	0.156148
167	0x3dcb3647	0.09922462
168	0x3ccf361a	0.025294352
169	0x3cd753cf	0.02628508
170	0x3ca0a68d	0.019610668
171	0x3ccf15e4	0.025278993
172	0x3ca4d32f	0.020120231
173	0x3b88e9f3	0.0041782795
174	0x3cdf6eac	0.027274452
175	0x3db7569c	0.08952066
176	0x3e176f45	0.1478854
177	0x3d6a394e	0.057183556
178	0xbcdc19b2	-0.026867721
179	0xbd91613c	-0.07098624
180	0xbb6777d6	-0.003531923
181	0xbca563c5	-0.020189175
182	0x3bf91142	0.0076009342
183	0xbce8549b	-0.028360656
184	0xbbc74e18	-0.0060823075
185	0xbcbd6b5b	-0.02312248
186	0xbd042ef4	-0.03227134
187	0xbd1c0667	-0.038092043
188	0xbd360d85	-0.044446487
189	0xbc3ac67f	-0.011399864
190	0xbbbe5cda	-0.0058094086
191	0xbdd87cd8	-0.10570687
192	0x3d1f5fed	0.03890984
193	0xbd0fd929	-0.03511921
194	0xbcef49cb	-0.029209992
195	0x811bb2ce	-2.859729e-38
196	0x00b83598	1.6916957e-38
197	0x00747d28	1.0697815e-38
198	0x3dcc6260	0.09979701
199	0x3d94cc6c	0.07265553
200	0x3c5d23dc	0.013497319
201	0x3e0ae3c9	0.13563456
202	0x3dd1745a	0.102272704
203	0x3dadf7f1	0.08494557
204	0x3de44547	0.11146026
205	0xbc119e9a	-0.008887911
206	0x3d6c1cd8	0.057644695
207	0x00eeeea8	2.1942462e-38
208	0x80b7c2f8	-1.6875837e-38
209	0x0190af82	5.3149087e-38
210	0x3c9d9e1b	0.01924043
211	0xbd40fa17	-0.047113504
212	0xbce83dac	-0.02834972
213	0x3d905496	0.070473835
214	0x3d50f6e8	0.05101672
215	0xbc072315	-0.00824811
216	0xbd31bbff	-0.043392178
217	0x3cf851e5	0.030312488
218	0xbcea510e	-0.028603103
219	0x3ddf1b83	0.10893919
220	0x3c7138d1	0.014723019
221	0x3ccc535e	0.024942096
222	0x39be5f7f	0.00036310774
223	0x3d189fb5	0.037261683
224	0x3db2cf99	0.08731002
225	0x3d562b8c	0.052287623
226	0x3de990ef	0.11404597
227	0x3daf63bc	0.08563945
228	0x3dd7d7f3	0.10539236
229	0xbd73e121	-0.05954087
230	0xbd87cfad	-0.06631408
231	0x3c20cc95	0.009814401
232	0x3c02d99c	0.007986452
233	0x3be0ed81	0.00686425
234	0x3c2b8cad	0.010470551
235	0xbc6b0af8	-0.014345877
236	0x3d45ff9a	0.048339464
237	0xbb1c6a3f	-0.0023867039
238	0xb9c1b45a	-0.000369462
239	0x3b26e776	0.0025467551
240	0x3da03922	0.07823397
241	0x3dd6caeb	0.10487922
242	0x3c8c5265	0.017129133
243	0xbd643cec	-0.055722162
244	0xbcd94bd1	-0.02652541
245	0xbd3d3218	-0.04619035
246	0xbd394202	-0.045228966
247	0xbcd5d3f3	-0.026102042
248	0xbd8741b1	-0.066043265
249	0xbd2cfbde	-0.042232387
250	0xbcaebc32	-0.021329973
251	0xbd742c5c	-0.059612617
252	0x008faaa4	1.319369e-38
253	0x0149ff4c	3.7101036e-38
254	0x818182ae	-4.757463e-38
255	0xba1c7317	-0.00059680775

st_blocks.0.temporal_conv.bias f4 [64]
0	0xb915577f	-0.00014242342
1	0x3b1cf080	0.002394706
2	0x3b87a8e3	0.004140006
3	0x3a59b234	0.00083044474
4	0xbb8b93b5	-0.0042595514
5	0x3a1df4ca	0.0006025551
6	0xbc3cbfa6	-0.011520302
7	0x3b619243	0.0034419454
8	0xba961348	-0.0011449838
9	0x3ba1d753	0.0049389987
10	0xbaebfc1f	-0.0018004215
11	0x3af589cd	0.0018733084
12	0x3b537a96	0.0032269112
13	0x3c09a8e9	0.008402088
14	0x3a32d1c2	0.00068214175
15	0x38da8cce	0.00010421277
16	0xb994d4ae	-0.00028387218
17	0x3a826ed0	0.0009951238
18	0xbac64ef3	-0.001512973
19	0xbb3c73ca	-0.002875554
20	0xbb2a1bcf	-0.0025956517
21	0x3c0191f8	0.007908337
22	0x3bd7930b	0.006578808
23	0xba907d8b	-0.0011023743
24	0x3aa059da	0.0012233809
25	0x3adcf079	0.0016856334
26	0x39d96ad6	0.00041469064
27	0x3a96c636	0.0011503163
28	0xbab9a85e	-0.0014164557
29	0xbbd25959	-0.0064193425
30	0x3b6ada00	0.0035835505
31	0x3b993649	0.0046756607
32	0xbb373f2e	-0.0027961242
33	0xbad4bec4	-0.0016231169
34	0x3bd68fbf	0.0065478976
35	0xbaa899df	-0.001286324
36	0xbb756de5	-0.0037449535
37	0x3b8f2fe1	0.0043697213
38	0x3aa74f8d	0.0012764797
39	0xbb07efb8	-0.0020742249
40	0x3b0d441a	0.0021555484
41	0xbaced9c9	-0.0015781458
42	0x3be15d7e	0.0068776
43	0x3a8b87d7	0.0010645342
44	0xb9de7b19	-0.00042434855
45	0x3afbfbec	0.0019224859
46	0xb965108f	-0.0002184531
47	0x3a1c4db9	0.00059625093
48	0xbb972d3f	-0.004613548
49	0x3a5b3c92	0.00083632127
50	0xbb089f73	-0.0020846992
51	0x39b12b96	0.00033792545
52	0x3996019a	0.00028611423
53	0x3b3079c4	0.0026928047
54	0x3b709042	0.0036707078
55	0xba592a6d	-0.0008284215
56	0xba93e9e4	-0.0011284915
57	0x3be4ce1b	0.0069825775
58	0xb70e60e0	-8.486415e-06
59	0xbb4fb89f	-0.0031695736
60	0x3ac183bf	0.0014763995
61	0xbc124425	-0.00892738
62	0xbaae09f7	-0.0013278116
63	0x3aa3855e	0.001247566

st_blocks.0.batch_norm_temporal.weight f4 [64]
0	0x3f7b523a	0.9817234
1	0x3f86794f	1.050577
2	0x3f9011a2	1.1255381
3	0x3f5f861a	0.87314
4	0x3f76f3b0	0.9646559
5	0x3f7ba2e5	0.9829543
6	0x3f85919c	1.0435061
7	0x3f841ce8	1.0321321
8	0x3f782cc8	0.9694333
9	0x3f6f987c	0.9359205
10	0x3f7e62b1	0.9936934
11	0x3f737660	0.951025
12	0x3f84cfbc	1.0375896
13	0x3f85420f	1.0410784
14	0x3f880ef5	1.0629565
15	0x3f706f16	0.93919504
16	0x3f7dadff	0.9909362
17	0x3f82e809	1.0227062
18	0x3f8217f6	1.0163562
19	0x3f89cda8	1.0765886
20	0x3f799455	0.9749196
21	0x3f73106e	0.94946945
22	0x3f6b2a0a	0.9186102
23	0x3f898560	1.0743828
24	0x3f6717d9	0.90270764
25	0x3f68bfb2	0.90917504
26	0x3f868dc1	1.051201
27	0x3f820c37	1.0159978
28	0x3f6bd66d	0.9212406
29	0x3f92f45c	1.1480823
30	0x3f725c01	0.94671637
31	0x3f82c5c1	1.02166
32	0x3f854a89	1.0413371
33	0x3f7030ad	0.93824273
34	0x3f6f9557	0.9358725
35	0x3f74fee1	0.95701414
36	0x3f7cc0c9	0.98731667
37	0x3f7f625b	0.99759454
38	0x3f6aef77	0.91771644
39	0x3f84e4cb	1.0382322
40	0x3f5b7384	0.8572314
41	0x3f81fe64	1.0155759
42	0x3f84b08f	1.0366381
43	0x3f8a3c83	1.0799717
44	0x3f6fe959	0.93715435
45	0x3f89f55c	1.0778003
46	0x3f698b80	0.91228485
47	0x3f6976ba	0.9119679
48	0x3f6f9b42	0.9359628
49	0x3f6bc11b	0.9209153
50	0x3f66a734	0.9009888
51	0x3f7bc5c0	0.9834862
52	0x3f77745e	0.9666194
53	0x3f818ee0	1.0121727
54	0x3f6ba8ed	0.92054635
55	0x3f83ded6	1.0302379
56	0x3f59b533	0.85042113
57	0x3f81feb3	1.0155853
58	0x3f5c75ce	0.86117256
59	0x3f5ff08f	0.8747644
60	0x3f7de236	0.99173295
61	0x3f907478	1.1285543
62	0x3f81a63d	1.0128857
63	0x3f82ca3e	1.021797

st_blocks.0.batch_norm_temporal.bias f4 [64]
0	0xbd968414	-0.07349411
1	0x3d5e4ae8	0.054270655
2	0x3d2fd721	0.042929772
3	0xbd736ca8	-0.059429795
4	0xbd5d8db7	-0.054090228
5	0xbe0cd549	-0.13753237
6	0x3d700865	0.058601756
7	0xbe207253	-0.15668611
8	0x3d7de851	0.061989132
9	0xbbdf5ab5	-0.006816233
10	0x3df5cb23	0.12001636
11	0xbdd85679	-0.10563368
12	0x3dcfb558	0.101420105
13	0x3cbb0b4e	0.022832539
14	0x3d7752c6	0.060381673
15	0x3d8dcf3c	0.069242924
16	0x3e08e1a8	0.13367331
17	0x3d10bb45	0.035334844
18	0xbe25bdcd	-0.16185685
19	0x3dc9a3f8	0.09845728
20	0xbe03258b	-0.1280729
21	0xbcc389f2	-0.023869488
22	0xbdb7cbc6	-0.089744136
23	0x3df1b6cc	0.11802444
24	0xbcb3a0a2	-0.021927182
25	0xbd6e1aaa	-0.058130898
26	0x3de55010	0.11196911
27	0x3dad3dac	0.084590286
28	0xbd30d115	-0.043168146
29	0xbd77d0b0	-0.060501754
30	0xbd59bcff	-0.053158756
31	0xbdeda2ad	-0.116032936
32	0xbe18baaa	-0.14914957
33	0xbcef3f1c	-0.029204898
34	0xbd2400d5	-0.040039856
35	0x3ddcda65	0.10783843
36	0xbd8cdc2b	-0.06877931
37	0xbd908085	-0.07055763
38	0x3d07bd8b	0.033139747
39	0xbe018979	-0.12650098
40	0xbe2bfba6	-0.16795215
41	0xbadba3fa	-0.0016757243
42	0x3de8b6aa	0.113629654
43	0xbcb8fac8	-0.02258052
44	0xbbeed9c5	-0.0072891437
45	0x3df07106	0.117403075
46	0xbdad11f7	-0.08450692
47	0xbc97d395	-0.018533507
48	0xbdf087e9	-0.11744673
49	0x3cdd1328	0.026986673
50	0xbdc5b84d	-0.09654293
51	0xbc8e1961	-0.017346086
52	0xbe20decc	-0.1570999
53	0x3df81cfb	0.121149026
54	0xbc107f93	-0.008819479
55	0x3d0d4673	0.034491014
56	0xbdd516da	-0.10404749
57	0xbde8abef	-0.11360919
58	0xbd8542a0	-0.06506848
59	0xbdea87e5	-0.11451701
60	0x3dd93d65	0.10607413
61	0xbd64f207	-0.055894878
62	0xbdefa31a	-0.11701031
63	0x3d833bed	0.06407914

st_blocks.0.batch_norm_temporal.running_mean f4 [64]
0	0x3f9c0bac	1.2191062
1	0x3fb898da	1.4421647
2	0x3ed8a72e	0.42315048
3	0x3fefee51	1.8744603
4	0xbf32f9da	-0.69912493
5	0x3d8800d4	0.06640783
6	0xbdc7eaa6	-0.097615525
7	0x3ee9c2c5	0.4565641
8	0x3fa86993	1.3157219
9	0x3e0eeeba	0.13958254
10	0x3fb06f79	1.3784019
11	0xbf571772	-0.8402015
12	0x400d43b6	2.2072577
13	0x3f583994	0.8446286
14	0x3f7087d3	0.9395725
15	0x3f831af9	1.0242606
16	0x3ef90128	0.48633695
17	0x4007f320	2.1242142
18	0x401f194e	2.4859195
19	0x3f232e96	0.6374296
20	0x4025969e	2.587318
21	0x3d5e9a44	0.054346338
22	0xbfb67fee	-1.4257791
23	0xbfb325c7	-1.3995904
24	0x401fb37f	2.4953306
25	0x3eb4a8f4	0.3528515
26	0xbfbdf90c	-1.4841628
27	0x40006196	2.0059562
28	0x3f99e86a	1.2024052
29	0x3ee34b1a	0.44393235
30	0xbf5b7e2a	-0.85739386
31	0x3fcdc408	1.6075449
32	0xbebf679a	-0.3738373
33	0x3fdb0300	1.711029
34	0x3f684cbe	0.907421
35	0x3e015909	0.1263162
36	0xbedac90f	-0.4273152
37	0x3e4e22da	0.20130482
38	0x3f8ff555	1.1246744
39	0xbf9eb564	-1.2399106
40	0xbf94eb84	-1.1634374
41	0x3fd94ff6	1.6977527
42	0x3f69c44b	0.91315144
43	0xbea1a7ef	-0.31573436
44	0x3f9d470f	1.228731
45	0x4004155e	2.0638041
46	0xbf3c5de4	-0.73580766
47	0x401c6d9f	2.4441907
48	0xbf8febac	-1.1243796
49	0x3fb08d26	1.3793075
50	0x3f072515	0.5279096
51	0xbf9f581a	-1.2448761
52	0x3f9e0c72	1.2347548
53	0x3e90c06a	0.282718
54	0x3e178623	0.14797263
55	0x3fd67f40	1.6757584
56	0x3e0012b9	0.12507142
57	0xbebfaf37	-0.37438366
58	0x3f6187fc	0.8809812
59	0xbea2383b	-0.31683525
60	0x3f0b59fa	0.5443417
61	0xbda4541b	-0.08023854
62	0x3f1aa13b	0.6040227
63	0x3fe8e51c	1.8194919

st_blocks.0.batch_norm_temporal.running_var f4 [64]
0	0x3e697791	0.22799517
1	0x3ea34d23	0.31894788
2	0x3c66e356	0.014092287
3	0x3f0a33c4	0.5398524
4	0x3d452962	0.04813517
5	0x3d7a10d8	0.06105122
6	0x3d0361e4	0.032075778
7	0x3c657755	0.014005502
8	0x3e7dc82c	0.24783391
9	0x3d69aaa4	0.0570475
10	0x3eb621a9	0.35572556
11	0x3e0a4429	0.13502564
12	0x3f0b9bf1	0.5453482
13	0x3cab68e6	0.020924043
14	0x3e52eab6	0.20597348
15	0x3ea35b53	0.31905612
16	0x3e2a8116	0.16650805
17	0x3eec4ae3	0.46150884
18	0x3f2783c9	0.65435463
19	0x3e05a7ad	0.13052244
20	0x3ee4c39c	0.44680488
21	0x3c83df8d	0.016097808
22	0x3ebc41c9	0.3676894
23	0x3f168f78	0.58812666
24	0x3f154b68	0.58318186
25	0x3e9eb1a8	0.30994916
26	0x3ef7b26a	0.48378307
27	0x3f087950	0.5331011
28	0x3e8f13dc	0.2794484
29	0x3cabca14	0.020970382
30	0x3e338ccb	0.17534177
31	0x3e864558	0.2622478
32	0x3dcd75ed	0.10032258
33	0x3e8ca133	0.27466735
34	0x3e37c733	0.17947082
35	0x3dba54ca	0.090982035
36	0x3d2cbc3c	0.0421717
37	0x3c9c99cd	0.019116307
38	0x3ed6f342	0.41982466
39	0x3e539075	0.20660575
40	0x3f23eafa	0.6403042
41	0x3ec2108d	0.37903252
42	0x3e2e0118	0.16992605
43	0x3e3f1212	0.18659237
44	0x3eedbf15	0.46434847
45	0x3f27cd07	0.6554722
46	0x3e7a6bb6	0.24455151
47	0x3eca1a15	0.39473024
48	0x3e572c1b	0.21012919
49	0x3ed42879	0.41437128
50	0x3e9e749a	0.30948335
51	0x3e5701ed	0.20996828
52	0x3dfedb48	0.12444168
53	0x3dd3e42a	0.10346253
54	0x3e12585a	0.14291516
55	0x3ea0ebf2	0.31430012
56	0x3ec188ff	0.37799832
57	0x3d082d82	0.033246525
58	0x3e449810	0.19198632
59	0x3e1b68b1	0.15176655
60	0x3e150596	0.14552912
61	0x3d1fe18e	0.039033465
62	0x3e493b3c	0.19651502
63	0x3ed102c1	0.40822414

st_blocks.0.batch_norm_spatial.weight f4 [64]
0	0x3fa69207	1.3013314
1	0x3fb9969a	1.4499085
2	0x3fa1e3bc	1.2647624
3	0x3fa80ca8	1.3128862
4	0x3fa8687e	1.3156888
5	0x3faad2bf	1.3345565
6	0x3fa3b6ff	1.2790221
7	0x3faff9b6	1.3748081
8	0x3fa24cf9	1.267974
9	0x3fa1b44b	1.2633146
10	0x3fa7ccb7	1.3109349
11	0x3fa274d1	1.26919
12	0x3f9e570f	1.2370318
13	0x3fa7aceb	1.3099645
14	0x3fa2a7d6	1.270747
15	0x3fa350f6	1.2759082
16	0x3fadc92f	1.3577021
17	0x3fa36bd7	1.2767285
18	0x3fa268f2	1.2688277
19	0x3fa344de	1.2755392
20	0x3fa3b7d5	1.2790476
21	0x3fb5a819	1.4191924
22	0x3fb7a851	1.4348241
23	0x3fb5c1be	1.419975
24	0x3fabc9f7	1.342101
25	0x3fa5d734	1.29563
26	0x3fa2535b	1.2681688
27	0x3fa84528	1.3146105
28	0x3fa63661	1.2985345
29	0x3fa867d1	1.3156682
30	0x3fa4e367	1.2881898
31	0x3fa1d137	1.2641972
32	0x3fa2d3ed	1.2720925
33	0x3fa4e73b	1.2883066
34	0x3f9f1896	1.2429378
35	0x3f99e294	1.2022271
36	0x3fae270a	1.3605664
37	0x3faa030e	1.3282182
38	0x3fa290f8	1.2700491
39	0x3fa0f0e5	1.2573515
40	0x3f9e7702	1.2380068
41	0x3fa32e1c	1.2748446
42	0x3faa6925	1.3313338
43	0x3fa897e4	1.3171353
44	0x3f9eda52	1.2410376
45	0x3fba86d8	1.4572401
46	0x3fa8e522	1.3194926
47	0x3fa9aa8b	1.325517
48	0x3fa7e2e0	1.3116112
49	0x3fa6b2e2	1.3023341
50	0x3fa427f8	1.2824697
51	0x3fa0474e	1.252176
52	0x3fac0e29	1.3441821
53	0x3fa96d48	1.3236475
54	0x3fa8f4bf	1.319969
55	0x3fa08c73	1.2542862
56	0x3fa4c9b0	1.287405
57	0x3f9af555	1.2106119
58	0x3fa4b224	1.2866864
59	0x3fa15fa4	1.2607312
60	0x3fa39b33	1.2781738
61	0x3fb8be3c	1.4433055
62	0x3fa731de	1.3062093
63	0x3fa12354	1.2588906

st_blocks.0.batch_norm_spatial.bias f4 [64]
0	0x3e74317a	0.23846999
1	0x3e66bdc7	0.22533332
2	0x3e758cda	0.23979512
3	0x3e66f703	0.22555165
4	0x3e7151dc	0.23566383
5	0x3e68cdf4	0.22734815
6	0x3e81766d	0.25285664
7	0x3e729da8	0.23692954
8	0x3e521040	0.20514011
9	0x3e70ed36	0.23527989
10	0x3e867515	0.26261202
11	0x3e683fd9	0.22680606
12	0x3ea81aad	0.32832852
13	0x3e587112	0.21136883
14	0x3e6e848b	0.23292749
15	0x3e930ff7	0.28723118
16	0x3e7e9b9f	0.24864052
17	0x3e69fc9a	0.22850266
18	0x3e770831	0.24124219
19	0x3e8a3c71	0.26999238
20	0x3e989366	0.29799956
21	0x3e8fc5bd	0.2808055
22	0x3e89752e	0.26847214
23	0x3e1fe965	0.15616377
24	0x3e4e58c4	0.20151049
25	0x3e705b59	0.23472346
26	0x3cf23c89	0.029569881
27	0x3e660111	0.22461344
28	0x3e9e0ec3	0.30870637
29	0x3e75121e	0.23932692
30	0x3e4d1f4c	0.2003147
31	0x3e7c2336	0.24622807
32	0x3e83c06c	0.25732744
33	0x3ea44957	0.32087204
34	0x3e979ef4	0.2961346
35	0x3aa02aeb	0.0012219822
36	0x3e0e7011	0.13909937
37	0x3e7cfc54	0.2470563
38	0x3e5d8ca7	0.21635686
39	0x3e565021	0.20929004
40	0x3e5dd9b6	0.21665081
41	0x3e67498c	0.2258665
42	0x3e8aa7ec	0.2708124
43	0x3e88c093	0.26709422
44	0x3e6d1882	0.2315388
45	0x3e908133	0.2822357
46	0x3e50ad79	0.20378675
47	0x3e11372c	0.14181203
48	0x3e493663	0.19649653
49	0x3e7d510d	0.2473795
50	0x3e95510f	0.29163405
51	0x3e647f89	0.22314276
52	0x3e8f439f	0.27981278
53	0x3e6ed7ae	0.23324463
54	0x3e7cdd7d	0.24693866
55	0x3e81cd46	0.25351924
56	0x3e814e0a	0.25254852
57	0x3e9f7af6	0.311485
58	0x3e5c9d33	0.21544342
59	0x3e6af800	0.22946167
60	0x3e65cf9f	0.22442482
61	0x3e901d30	0.28147268
62	0x3e61e590	0.22060227
63	0x3e65a3c0	0.22425747

st_blocks.0.batch_norm_spatial.running_mean f4 [64]
0	0x3eba8399	0.36428526
1	0xbf47742e	-0.7791165
2	0x3f75c006	0.9599613
3	0x3fc7078d	1.5549179
4	0xbed1424c	-0.40870893
5	0x3f8f1e4a	1.1181118
6	0x3efd40dc	0.49463546
7	0xbf397a64	-0.7245238
8	0x3d1ee8b1	0.03879613
9	0x3f858128	1.043004
10	0x3f0469d4	0.5172398
11	0x3f9b150a	1.2115796
12	0x3ee7255d	0.45145693
13	0xbf58bd43	-0.8466379
14	0x3f5cc15c	0.86232543
15	0xbc124adf	-0.0089289835
16	0x3f502679	0.81308705
17	0x3f8979ac	1.0740256
18	0x3f8c8760	1.0978813
19	0xbea2806b	-0.317386
20	0x3fb5fa23	1.4216961
21	0xbf57d95a	-0.8431603
22	0xbf11f5f7	-0.5701594
23	0xbf971b8f	-1.1805285
24	0x3f2aaad2	0.666669
25	0x3f449d57	0.7680258
26	0x3f8bf928	1.0935411
27	0x3e5d50cc	0.21612853
28	0x3e1d4939	0.15359963
29	0x3d7a8c8a	0.061169185
30	0xbf15294a	-0.5826613
31	0x3eab6df5	0.33482328
32	0x3f67edce	0.90597236
33	0x3fa8b311	1.3179647
34	0x3f07c824	0.53039765
35	0xbf8cf3ec	-1.1011939
36	0xbf07c344	-0.53032327
37	0xbecebe64	-0.40379632
38	0x3f706c11	0.93914896
39	0x3fbb7999	1.4646484
40	0x3f7cd03b	0.98755234
41	0x3f390eb7	0.7228808
42	0x3ecbe4ef	0.398231
43	0x3ee356b2	0.4440208
44	0x3f4284b8	0.7598376
45	0xbf7851e4	-0.96999955
46	0x3ec6cec0	0.38829613
47	0x3f60c5c8	0.8780179
48	0x3d4be868	0.049782187
49	0x3f37b010	0.71753025
50	0x3e8afc2f	0.27145526
51	0x3f190225	0.597689
52	0xbee5009e	-0.44727033
53	0xbf6bc4df	-0.92097276
54	0x3f34c7f1	0.70617586
55	0xbd71f71a	-0.059073545
56	0x3f7aac4c	0.97919154
57	0x3ed074c9	0.407141
58	0x3f3a4a57	0.72769684
59	0x3eaabac8	0.33345628
60	0x3f69d08a	0.9133383
61	0xbeeed631	-0.4664779
62	0x3e267e19	0.1625904
63	0x3fab6869	1.3391238

st_blocks.0.batch_norm_spatial.running_var f4 [64]
0	0x3e325667	0.17415772
1	0x3e15f72d	0.14645071
2	0x3efbed5c	0.49204528
3	0x3ec3b770	0.3822589
4	0x3e08e551	0.13368727
5	0x3e151366	0.14558181
6	0x3e144675	0.14480002
7	0x3e5c99c9	0.2154304
8	0x3e216f42	0.15765098
9	0x3edc8d8a	0.43076736
10	0x3e7e5eae	0.24840805
11	0x3f28dd0a	0.6596228
12	0x3f1dcc23	0.6163961
13	0x3de9a610	0.11408627
14	0x3ef6d899	0.48212126
15	0x3f567aaf	0.8378095
16	0x3dc29e36	0.095028326
17	0x3e9e9607	0.30973837
18	0x3eb58054	0.3544947
19	0x3e304766	0.17214736
20	0x3f9a64d0	1.2062016
21	0x3dbbcaa0	0.09169507
22	0x3cbf9a1a	0.023388911
23	0x3e4113d8	0.18855226
24	0x3de6b963	0.112658285
25	0x3ea01916	0.3126914
26	0x3e033193	0.1281188
27	0x3de8330b	0.11337861
28	0x3f4a9348	0.79130983
29	0x3e2088af	0.1567714
30	0x3e230da9	0.1592318
31	0x3e89f69e	0.26945966
32	0x3e81834b	0.2529548
33	0x3ebd39b8	0.36958098
34	0x3edd94c9	0.43277577
35	0x3ecbfefb	0.39842972
36	0x3d9eead6	0.07759635
37	0x3e3c6c45	0.18400677
38	0x3eabed75	0.33579603
39	0x3f8216a1	1.0163156
40	0x3ee8aca3	0.4544421
41	0x3e009f0b	0.1256067
42	0x3ea1f0ea	0.31629115
43	0x3ec6f2e3	0.38857183
44	0x3f50e1a2	0.8159429
45	0x3d935289	0.07193477
46	0x3e7d88f6	0.24759278
47	0x3e20abef	0.15690587
48	0x3e08e5d8	0.13368928
49	0x3ea531d3	0.32264575
50	0x3e4ea087	0.20178424
51	0x3e6204e7	0.22072183
52	0x3d965641	0.073406704
53	0x3e4dec2e	0.20109627
54	0x3d59de86	0.05319073
55	0x3f0e27da	0.5552956
56	0x3e991c14	0.29904234
57	0x3f9df3a6	1.2339981
58	0x3eaeee59	0.3416622
59	0x3e2105af	0.15724824
60	0x3e8792a9	0.2647908
61	0x3d80c74a	0.06288011
62	0x3de26a34	0.11055413
63	0x3f02af7d	0.51049024

st_blocks.1.spatial_weight f4 [64, 64]
0	0x3c173d2e	0.009230895
1	0xbd009621	-0.031393174
2	0x3e299313	0.1656001
3	0xbd96b10f	-0.0735799
4	0x3e547134	0.20746309
5	0x3e2e6acc	0.17032927
6	0x3e00ea83	0.12589459
7	0x3e87dce7	0.26535723
8	0xbd2914a2	-0.041279443
9	0x3e17fecf	0.14843296
10	0xbdbeb1aa	-0.093112305
11	0xbe8e12e3	-0.27748784
12	0xbe801339	-0.25014666
13	0xbdbf74b4	-0.09348431
14	0x3c3c0bb8	0.011477403
15	0xbd87aa68	-0.06624299
16	0x3dc3aca3	0.09554412
17	0xbdb0c9f0	-0.086322665
18	0x3be5f719	0.0070179817
19	0xbea7db3b	-0.32784447
20	0xbe348503	-0.17628865
21	0x3e873b2f	0.2641234
22	0xbde3049f	-0.11084866
23	0xbd449a7f	-0.0479989
24	0xbe3550df	-0.17706631
25	0xbe8b609b	-0.27222142
26	0xbdb781d2	-0.08960308
27	0xbe0af4a2	-0.13569883
28	0xbdd85d4e	-0.105646715
29	0x3d8bb94e	0.068224534
30	0xbd4cb5b3	-0.04997797
31	0x3d210b9d	0.039317716
32	0xbe1f7526	-0.15572032
33	0xbe77bd8a	-0.24193397
34	0xbde76bdc	-0.112998694
35	0xba067546	-0.00051291694
36	0xbdaa5bc0	-0.08318281
37	0xbd5c19f0	-0.053735673
38	0xbd4a3c58	-0.049373955
39	0x3dfb8b79	0.12282462
40	0xbd904e94	-0.070462376
41	0x3d88c865	0.06678847
42	0x3e112da1	0.14177562
43	0xbcb7b1a9	-0.022423582
44	0xbd2e7f8c	-0.042602107
45	0x3e42c3bf	0.19019984
46	0xbe205a9f	-0.15659569
47	0xbc4123fa	-0.011788363
48	0xbd9bc56e	-0.07606016
49	0xbe512fcb	-0.20428388
50	0x3dd71aef	0.10503184
51	0x3dfab83c	0.12242171
52	0x3d960cbf	0.0732665
53	0xbdaf2b58	-0.08553189
54	0xbe225777	-0.15853678
55	0x3d325541	0.043538336
56	0xbe354961	-0.17703773
57	0xbd2aa296	-0.04165896
58	0x3e295449	0.16536058
59	0x3d69f08d	0.057114173
60	0x3dfe67f3	0.124221705
61	0x3e0fdd9d	0.14049383
62	0xbd05acd8	-0.03263554
63	0x3b3d853f	0.0028918532
64	0x3d6ac28a	0.057314433
65	0xbeaad770	-0.3336749
66	0xbd184087	-0.037170913
67	0xbd815e4d	-0.063168146
68	0xbddc4eb4	-0.10757199
69	0x3d731de3	0.059354674
70	0x3e016838	0.12637413
71	0xbd7a0b49	-0.06104592
72	0xbc3c2fa7	-0.011485971
73	0x3e1dac0c	0.15397662
74	0xbe16e202	-0.14734653
75	0xbe2f6940	-0.17129993
76	0x3d556726	0.052100323
77	0x3dfc0351	0.1230532
78	0xbc7ad71c	-0.015310075
79	0xbe27e117	-0.16394459
80	0x3e8811a0	0.26575947
81	0x3d7d4579	0.061833832
82	0x3e074e28	0.13213408
83	0xbd0447a6	-0.03229489
84	0x3e3c297a	0.18375197
85	0xbda792c1	-0.08182288
86	0xbdbc6642	-0.09199192
87	0x3d1e09da	0.038583614
88	0x3d9dfedb	0.077146254
89	0xbca6a141	-0.020340564
90	0x3d8304a0	0.063973665
91	0x3ca84c57	0.020544214
92	0xbe0b1a2e	-0.13584206
93	0xbc68517a	-0.014179582
94	0x3dcc168b	0.09965237
95	0x3e0832d6	0.13300642
96	0x3c4e3a12	0.012587087
97	0x3cb33317	0.021874947
98	0xbd3cf601	-0.046133045
99	0xbdc1db32	-0.09465636
100	0xbeb83c23	-0.3598338
101	0xbe623f13	-0.22094373
102	0xbda08f12	-0.078397885
103	0xbe162604	-0.1466294
104	0xbdd8fe7b	-0.10595413
105	0xbd8ae208	-0.06781393
106	0xbc45dc8a	-0.012076506
107	0xbde79abe	-0.113088116
108	0xbddf4238	-0.10901302
109	0x3dede9f2	0.11616887
110	0x3ca0faad	0.019650782
111	0x3c7c4709	0.0153977955
112	0xbd6e3cf6	-0.058163606
113	0xbdc52c5c	-0.096276015
114	0x3d41f608	0.047353774
115	0xbdcb2c78	-0.09920591
116	0xbe0b5829	-0.13607849
117	0x3e3eb2b5	0.18622859
118	0xbe3fa46d	-0.18715067
119	0xbe23ac9f	-0.15983818
120	0x3bcef2b6	0.0063155545
121	0xbd415a3c	-0.047205195
122	0xbceb4313	-0.028718507
123	0x3daf8607	0.085704856
124	0xbd820de5	-0.063503064
125	0xbe2b4ade	-0.16727778
126	0xbe4ddada	-0.20103016
127	0x3d28cab3	0.041208934
128	0x3d893da3	0.067012094
129	0xbe4848c6	-0.19559011
130	0xbc45cf32	-0.012073325
131	0xbdf92b2a	-0.12166436
132	0xbdefcf52	-0.11709465
133	0xbc343df3	-0.011001098
134	0x3e19dceb	0.1502568
135	0x3dd1c1b2	0.102420226
136	0x3e0002e9	0.1250111
137	0x3c76b186	0.015056973
138	0x3c983323	0.018579071
139	0x3c7e7fe6	0.015533423
140	0xbc3ae922	-0.011408122
141	0xbddbd04f	-0.10733091
142	0x3c8e277c	0.017352812
143	0x3dda7a3b	0.10667845
144	0x3e6a16f1	0.22860314
145	0xbdd51710	-0.104047894
146	0x3dd8455f	0.105601065
147	0x3dd1e156	0.102480575
148	0x3d0174db	0.031605583
149	0xbdc0c58e	-0.094126806
150	0xbdd64b47	-0.10463577
151	0xbe9e4313	-0.3091055
152	0x3e8d7a20	0.27632236
153	0xbd518770	-0.051154554
154	0x3db5cea3	0.088773035
155	0x3d36adc0	0.044599295
156	0xbe549e8b	-0.20763604
157	0x3d8138b3	0.06309643
158	0xbc8208f2	-0.015873406
159	0xbcb256c8	-0.021769896
160	0xbd371926	-0.044701718
161	0x3d62b7e9	0.05535117
162	0x3d90afc5	0.070647754
163	0x3d2a3d9d	0.041562665
164	0xbe2ca656	-0.16860327
165	0xbdd11c41	-0.10210467
166	0xbdb68841	-0.08912707
167	0x3db64e18	0.08901614
168	0x3cf0024e	0.029297974
169	0xbd85f074	-0.065400034
170	0x3d0d2326	0.03445735
171	0xbd0909db	-0.033456665
172	0x3deadd15	0.11467949
173	0xbe5a2b05	-0.21305473
174	0x3cecd3a4	0.028909512
175	0x3e8345cc	0.25639188
176	0xbd4f89d1	-0.05066854
177	0x3e3602b9	0.17774476
178	0x3e5af39b	0.2138199
179	0xbd08f0aa	-0.03343264
180	0x3e39d34f	0.18147014
181	0xbc80555b	-0.0156657
182	0x3e1ba2a3	0.1519876
183	0x3c1e8512	0.009675281
184	0xbdb07056	-0.086151764
185	0x3e209a44	0.15683848
186	0x3d6a572c	0.05721204
187	0xbe22a94f	-0.15884899
188	0x3e119368	0.14216387
189	0xbdc6e017	-0.097107105
190	0xbe61539c	-0.2200455
191	0xbd4d90a4	-0.05018677
192	0xbe054f26	-0.13018474
193	0x3e15435e	0.1457648
194	0xbe17b972	-0.14816836
195	0xbe58b7db	-0.21163885
196	0xbdc57e38	-0.09643215
197	0x3dc2d537	0.09513324
198	0x3e21b6e8	0.1579243
199	0xbda05680	-0.078289986
200	0xbd4ad0b3	-0.049515437
201	0xbe16da25	-0.14731653
202	0x3e694250	0.22779202
203	0xbd854cd9	-0.06508798
204	0xbd16f2a9	-0.036852513
205	0x3d3e6e3d	0.04649185
206	0xbe7d2022	-0.24719289
207	0xbdf7b283	-0.12094595
208	0xbe727a02	-0.23679355
209	0x3bfaf824	0.007658975
210	0x3e00a333	0.12562256
211	0xbcae9fc6	-0.02131642
212	0xbe3e82f7	-0.18604647
213	0x3de6da03	0.11272051
214	0x3c350ea0	0.01105085
215	0xbe326f4b	-0.17425267
216	0xbe5428da	-0.20718709
217	0x3d73d2b3	0.05952711
218	0x3e311a96	0.17295298
219	0x3e1ee259	0.15516032
220	0xbd88b34b	-0.066748224
221	0xbe66af31	-0.22527768
222	0xbe5b6b23	-0.21427588
223	0xbce23b19	-0.02761607
224	0xbce1b487	-0.027551902
225	0xbe4188a2	-0.18899778
226	0xbb82b64e	-0.0039890176
227	0x3e2f76f1	0.17135216
228	0x3da663be	0.08124493
229	0xbe02ec5c	-0.12785476
230	0xbe23b841	-0.15988256
231	0xbe189e69	-0.14904179
232	0xbd9f6b72	-0.077841654
233	0xbeac7a27	-0.33686945
234	0x3c296683	0.010339382
235	0xbe10e737	-0.14150701
236	0xbd521032	-0.051284976
237	0x3dec19e1	0.115283735
238	0xbdc06cf2	-0.0939578
239	0xbd13593f	-0.035973784
240	0xbda05bf2	-0.07830037
241	0xbda1d84b	-0.07902583
242	0x3d3c6515	0.045994837
243	0x3d9c6c39	0.07637829
244	0xbc46ebf1	-0.012141214
245	0xbca8e5bb	-0.020617357
246	0xbdd80f07	-0.10549741
247	0xbe8056f8	-0.25066352
248	0xbe2f2955	-0.1710561
249	0x3e32532e	0.17414543
250	0xbe656401	-0.2240143
251	0xbe9fb3b9	-0.31191805
252	0xbda6a7cf	-0.08137476
253	0xbd89b42d	-0.06723819
254	0xbd04ea86	-0.03245022
255	0x3dd5694f	0.10420477

st_blocks.1.temporal_conv.weight f4 [64, 64, 1, 3]
0	0xbd7948be	-0.060860388
1	0x3cb80930	0.022465318
2	0xbc690b7b	-0.014223929
3	0xbd3fd0ee	-0.04683011
4	0xbd41f96a	-0.047357
5	0xbcf1eb9e	-0.029531296
6	0xbd563b9f	-0.052302953
7	0x3c51051a	0.012757564
8	0x3c1fbd20	0.009749681
9	0x3c91fc70	0.017820567
10	0xbceb9629	-0.028758125
11	0x3cd932ab	0.026513418
12	0xbd607648	-0.0548003
13	0xbde874d2	-0.11350407
14	0xbe07e22b	-0.1326987
15	0xbc2acca9	-0.010424771
16	0x3c3d08b3	0.011537719
17	0xbd62fdae	-0.05541771
18	0xba44075b	-0.00074779027
19	0x3d44f3d3	0.04808409
20	0x3cc34fda	0.023841787
21	0x3d632882	0.055458553
22	0x3b2dcb14	0.002651875
23	0x3da45237	0.08023494
24	0x3d3bc7e9	0.045844946
25	0x3c75010d	0.014953864
26	0xbd8fda88	-0.070241034
27	0xbbfc736c	-0.007704189
28	0xbc8fb201	-0.017540934
29	0xbcb7c709	-0.022433775
30	0x3ca655bd	0.020304555
31	0x3d036030	0.032074153
32	0x3ceada20	0.028668463
33	0xbd6fda4f	-0.058557805
34	0x3d0174a5	0.03160538
35	0x3cbefd30	0.023314089
36	0x3d626343	0.055270445
37	0x3de1e6eb	0.11030372
38	0x3d820446	0.06348471
39	0xbe141846	-0.14462385
40	0xbe0994b8	-0.13435638
41	0xbe5013ae	-0.20320007
42	0xbc043864	-0.008070085
43	0x3c768e79	0.015048617
44	0x3d5f0c0d	0.054454852
45	0x3d61d88c	0.055138156
46	0x3daa80e1	0.08325363
47	0xbc8308ed	-0.015995467
48	0xbd01b999	-0.03167114
49	0x3c907d34	0.017637827
50	0xbd3c299a	-0.04593811
51	0x3c1ff862	0.009763809
52	0x3bfbe72e	0.007687471
53	0xbca7c63e	-0.020480271
54	0xbbdcbc76	-0.0067363335
55	0x3d01b7c9	0.03166941
56	0x38e2b767	0.00010810681
57	0xbd76aad9	-0.060221527
58	0xbc6a9c87	-0.014319546
59	0xbd4d32f1	-0.05009741
60	0x3cdb8100	0.02679491
61	0x3db8fbaf	0.0903238
62	0x3c090c24	0.008364711
63	0xbd16d213	-0.036821436
64	0xbbf387d2	-0.0074319625
65	0xbd2442dd	-0.04010283
66	0xbdb90240	-0.09033632
67	0xbd453e8e	-0.04815536
68	0xbd29be60	-0.04144132
69	0x3dfc14e5	0.12308673
70	0x3cdadb74	0.026715972
71	0x3dab6cb1	0.083703406
72	0x3dbbe811	0.091751225
73	0x3e18ecb4	0.14934045
74	0x3e1e2872	0.15445116
75	0x3d2db9f4	0.042413667
76	0x3db8cbfe	0.090232834
77	0x3ceebe9b	0.029143622
78	0x3e46ad6d	0.19402094
79	0x3dd5c960	0.104388
80	0x3d33708b	0.0438085
81	0x3da0c6e9	0.07850439
82	0x3d1bcf1c	0.03803931
83	0x3d63bada	0.055598117
84	0x3de904a7	0.113778405
85	0x3db62b7f	0.08895015
86	0x3ccb632d	0.024827564
87	0xbd10ee69	-0.035383616
88	0xbd80a281	-0.06280995
89	0xbaa3829c	-0.0012474838
90	0x3c3e02fb	0.01159739
91	0x3d35630f	0.044283923
92	0x3d4071f9	0.046983693
93	0xbd5c59f4	-0.053796723
94	0xbcf44565	-0.029818246
95	0x3c35e8dc	0.011102881
96	0x3c1890f9	0.009311908
97	0xbc02dc37	-0.007987074
98	0x3d1886fa	0.0372381
99	0xbc1ffa04	-0.009764198
100	0x3c8d0b4d	0.017217303
101	0x3cb2c438	0.02182208
102	0x3cac7c71	0.021055432
103	0x3d77acf4	0.060467675
104	0x3d7c38e3	0.06157769
105	0xbe03eb8a	-0.1288282
106	0xbdfd8881	-0.12379552
107	0xbe295445	-0.16536053
108	0xbe24fc53	-0.16111879
109	0xbe063498	-0.13106
110	0xbd02d9a7	-0.03194585
111	0xbd11d04a	-0.03559903
112	0xbda1dfde	-0.079040274
113	0xbd8a37ef	-0.0674895
114	0x3d85f47b	0.065407716
115	0x3d71f13a	0.059067942
116	0x3d001f2d	0.03127973
117	0x3d9a6e16	0.075405285
118	0x3a7b7453	0.0009592224
119	0xbd04936d	-0.03236716
120	0x3d567ead	0.0523669
121	0xbcf44edf	-0.029822765
122	0xbc572ae6	-0.013132786
123	0x3ca21004	0.019783027
124	0xbb84a822	-0.0040483633
125	0xbd709f9b	-0.05874596
126	0xbc4d564c	-0.012532782
127	0xbdcec825	-0.10096768
128	0xbe42fb07	-0.19041072
129	0x3d2a0b55	0.041514713
130	0xbceefca0	-0.029173195
131	0xbdbdedd9	-0.092738815
132	0x3d0c26fd	0.03421687
133	0x3d260825	0.04053511
134	0x3c9d7c2d	0.01922425
135	0x3d80a84d	0.06282101
136	0x3cb7d268	0.022439197
137	0xbd9b91e0	-0.07596183
138	0xbd85ff2f	-0.06542813
139	0xbdb7d416	-0.08975999
140	0xbdb0c949	-0.08632142
141	0x3e10d41b	0.14143412
142	0x3d671459	0.05641589
143	0xbcdd0f35	-0.02698479
144	0xbda11646	-0.078655764
145	0xbbe8b137	-0.007101204
146	0x3ca48c61	0.02008647
147	0x3d8152f2	0.06314649
148	0x3da824ca	0.08210142
149	0xbd4d104a	-0.050064363
150	0x3bdd29be	0.006749361
151	0xbcdb92d1	-0.026803406
152	0xbd76b8b9	-0.06023476
153	0x3dc00c59	0.09377355
154	0x3d3d60ce	0.0462349
155	0x3c3d2e6c	0.011546712
156	0x3c825cd5	0.015913406
157	0xbba25ed2	-0.004955151
158	0x3d591c17	0.053005304
159	0x3bc03d6f	0.0058666985
160	0x3d16319a	0.036668397
161	0xbda5d579	-0.08097357
162	0x3dbdbcf9	0.09264559
163	0x3db85557	0.09000652
164	0x3d768c57	0.060192432
165	0x3cda9fdf	0.02668756
166	0xbbb6d142	-0.0055791447
167	0x3ca19c3f	0.019727824
168	0x3e10893a	0.14114848
169	0x3e11bf0b	0.14233033
170	0x3de2810b	0.11059769
171	0x3dcc721d	0.09982703
172	0x3dc37d77	0.09545415
173	0x3d91f783	0.07127287
174	0xbd0c765f	-0.034292575
175	0xbce4a8cc	-0.02791252
176	0xbd14efff	-0.03636169
177	0xbc3558a5	-0.011068498
178	0x3ce1df7c	0.027572386
179	0xbd29e0db	-0.041474205
180	0x3d32a104	0.043610588
181	0x3cdac314	0.026704349
182	0x3d10daee	0.035365038
183	0xbe805322	-0.25063425
184	0xbe3ef41f	-0.18647812
185	0xbe6908b2	-0.22757223
186	0x3bc535e5	0.0060183876
187	0xbcaa84c9	-0.02081527
188	0xbc8f6ab0	-0.017506927
189	0x3dc35185	0.09537033
190	0x3d8782b9	0.0661673
191	0xbc83c49e	-0.016084965
192	0x3ba838cf	0.0051337252
193	0xbd10f3e9	-0.03538886
194	0x3c11584e	0.008871151
195	0x3cfd39b8	0.030911312
196	0x3da3c6a1	0.0799687
197	0x3da5c5e6	0.08094387
198	0xbd691e4b	-0.056913655
199	0xbdb0a254	-0.08624712
200	0xbd06f7b4	-0.03295107
201	0xbd7197c9	-0.058982644
202	0xbdcef2f8	-0.10104936
203	0xbdce0a22	-0.100605264
204	0xbdc9d621	-0.09855295
205	0xbd4c2940	-0.049844027
206	0xbcf76e2b	-0.0302039
207	0xbd76653f	-0.06015515
208	0xbdb9ac0c	-0.090660185
209	0xbd82338c	-0.06357488
210	0x3c9a48ab	0.018833479
211	0x3bbbee32	0.005735182
212	0x3d148ceb	0.036267202
213	0xbced3f71	-0.028960915
214	0xbdce459d	-0.100718714
215	0xbe386828	-0.18008482
216	0xbd325470	-0.043537557
217	0xbcef0ed1	-0.02918187
218	0xbd4b41b0	-0.04962319
219	0xbc13b92a	-0.0090163145
220	0x3cd5dc43	0.026106006
221	0xbb2b74d6	-0.002616217
222	0xbd5423af	-0.051791843
223	0xbcb98e44	-0.022650845
224	0xbc919a41	-0.01777375
225	0xbe3d0434	-0.18458635
226	0xbe17d66c	-0.14827889
227	0xbd92836e	-0.071539745
228	0x3d83d24a	0.06436594
229	0x3d83dc4a	0.06438501
230	0x3e157a70	0.14597487
231	0xbdbc2533	-0.09186783
232	0xbd7f188e	-0.062279277
233	0xbd1ee5dc	-0.03879343
234	0xbddfa438	-0.10919994
235	0xbd966fce	-0.07345544
236	0xbd739e82	-0.059477337
237	0xbd35aacb	-0.044352334
238	0x3bf523bb	0.007481066
239	0xbc946d6b	-0.01811858
240	0xbd8df4f0	-0.06931484
241	0xbd6d6c8a	-0.05796484
242	0xbd6ce1c6	-0.0578325
243	0xbc67ed67	-0.014155722
244	0xbc6b44b0	-0.014359638
245	0x3c819fa2	0.01582319
246	0xbcefb285	-0.02925993
247	0xbd33de8b	-0.043913405
248	0xbc083bf2	-0.008315073
249	0xbd0c9c13	-0.03432853
250	0xbd0df631	-0.034658615
251	0xbda00f69	-0.07815439
252	0x3d8ee9bd	0.06978176
253	0x3d9ce738	0.07661289
254	0x3e27d950	0.16391492
255	0xbd8ff580	-0.07029247
